<?xml version="1.0" ?>
<net name="saved_model" version="10">
	<layers>
		<layer id="0" name="input_1" type="Parameter" version="opset1">
			<data shape="1, 3, 224, 224" element_type="f32"/>
			<output>
				<port id="0" precision="FP32" names="Func/StatefulPartitionedCall/input/_0:0,input_1:0">
					<dim>1</dim>
					<dim>3</dim>
					<dim>224</dim>
					<dim>224</dim>
				</port>
			</output>
		</layer>
		<layer id="1" name="StatefulPartitionedCall/mobilenet_1.00_224/conv1_bn/FusedBatchNormV3/mean/Fused_Mul__copy" type="Const" version="opset1">
			<data element_type="f32" shape="32, 3, 3, 3" offset="0" size="3456"/>
			<output>
				<port id="0" precision="FP32" names="StatefulPartitionedCall/mobilenet_1.00_224/conv1/Conv2D/ReadVariableOp:0">
					<dim>32</dim>
					<dim>3</dim>
					<dim>3</dim>
					<dim>3</dim>
				</port>
			</output>
		</layer>
		<layer id="2" name="StatefulPartitionedCall/mobilenet_1.00_224/conv1/Conv2D" type="Convolution" version="opset1">
			<data strides="2, 2" dilations="1, 1" pads_begin="0, 0" pads_end="1, 1" auto_pad="same_upper"/>
			<input>
				<port id="0" precision="FP32">
					<dim>1</dim>
					<dim>3</dim>
					<dim>224</dim>
					<dim>224</dim>
				</port>
				<port id="1" precision="FP32">
					<dim>32</dim>
					<dim>3</dim>
					<dim>3</dim>
					<dim>3</dim>
				</port>
			</input>
			<output>
				<port id="2" precision="FP32" names="StatefulPartitionedCall/mobilenet_1.00_224/conv1_bn/FusedBatchNormV3:0">
					<dim>1</dim>
					<dim>32</dim>
					<dim>112</dim>
					<dim>112</dim>
				</port>
			</output>
		</layer>
		<layer id="3" name="StatefulPartitionedCall/mobilenet_1.00_224/conv1_relu/Relu6" type="Clamp" version="opset1">
			<data min="0" max="6"/>
			<input>
				<port id="0" precision="FP32">
					<dim>1</dim>
					<dim>32</dim>
					<dim>112</dim>
					<dim>112</dim>
				</port>
			</input>
			<output>
				<port id="1" precision="FP32" names="StatefulPartitionedCall/mobilenet_1.00_224/conv1_relu/Relu6:0">
					<dim>1</dim>
					<dim>32</dim>
					<dim>112</dim>
					<dim>112</dim>
				</port>
			</output>
		</layer>
		<layer id="4" name="StatefulPartitionedCall/mobilenet_1.00_224/conv_dw_1_bn/FusedBatchNormV3/mean/Fused_Mul__copy" type="Const" version="opset1">
			<data element_type="f32" shape="32, 1, 1, 3, 3" offset="3456" size="1152"/>
			<output>
				<port id="0" precision="FP32" names="StatefulPartitionedCall/mobilenet_1.00_224/conv_dw_1/depthwise/ReadVariableOp:0">
					<dim>32</dim>
					<dim>1</dim>
					<dim>1</dim>
					<dim>3</dim>
					<dim>3</dim>
				</port>
			</output>
		</layer>
		<layer id="5" name="StatefulPartitionedCall/mobilenet_1.00_224/conv_dw_1/depthwise" type="GroupConvolution" version="opset1">
			<data strides="1, 1" pads_begin="1, 1" pads_end="1, 1" dilations="1, 1" auto_pad="same_upper"/>
			<input>
				<port id="0" precision="FP32">
					<dim>1</dim>
					<dim>32</dim>
					<dim>112</dim>
					<dim>112</dim>
				</port>
				<port id="1" precision="FP32">
					<dim>32</dim>
					<dim>1</dim>
					<dim>1</dim>
					<dim>3</dim>
					<dim>3</dim>
				</port>
			</input>
			<output>
				<port id="2" precision="FP32" names="StatefulPartitionedCall/mobilenet_1.00_224/conv_dw_1_bn/FusedBatchNormV3:0">
					<dim>1</dim>
					<dim>32</dim>
					<dim>112</dim>
					<dim>112</dim>
				</port>
			</output>
		</layer>
		<layer id="6" name="StatefulPartitionedCall/mobilenet_1.00_224/conv_dw_1_relu/Relu6" type="Clamp" version="opset1">
			<data min="0" max="6"/>
			<input>
				<port id="0" precision="FP32">
					<dim>1</dim>
					<dim>32</dim>
					<dim>112</dim>
					<dim>112</dim>
				</port>
			</input>
			<output>
				<port id="1" precision="FP32" names="StatefulPartitionedCall/mobilenet_1.00_224/conv_dw_1_relu/Relu6:0">
					<dim>1</dim>
					<dim>32</dim>
					<dim>112</dim>
					<dim>112</dim>
				</port>
			</output>
		</layer>
		<layer id="7" name="StatefulPartitionedCall/mobilenet_1.00_224/conv_pw_1_bn/FusedBatchNormV3/mean/Fused_Mul__copy" type="Const" version="opset1">
			<data element_type="f32" shape="64, 32, 1, 1" offset="4608" size="8192"/>
			<output>
				<port id="0" precision="FP32" names="StatefulPartitionedCall/mobilenet_1.00_224/conv_pw_1/Conv2D/ReadVariableOp:0">
					<dim>64</dim>
					<dim>32</dim>
					<dim>1</dim>
					<dim>1</dim>
				</port>
			</output>
		</layer>
		<layer id="8" name="StatefulPartitionedCall/mobilenet_1.00_224/conv_pw_1/Conv2D" type="Convolution" version="opset1">
			<data strides="1, 1" dilations="1, 1" pads_begin="0, 0" pads_end="0, 0" auto_pad="same_upper"/>
			<input>
				<port id="0" precision="FP32">
					<dim>1</dim>
					<dim>32</dim>
					<dim>112</dim>
					<dim>112</dim>
				</port>
				<port id="1" precision="FP32">
					<dim>64</dim>
					<dim>32</dim>
					<dim>1</dim>
					<dim>1</dim>
				</port>
			</input>
			<output>
				<port id="2" precision="FP32" names="StatefulPartitionedCall/mobilenet_1.00_224/conv_pw_1_bn/FusedBatchNormV3:0">
					<dim>1</dim>
					<dim>64</dim>
					<dim>112</dim>
					<dim>112</dim>
				</port>
			</output>
		</layer>
		<layer id="9" name="StatefulPartitionedCall/mobilenet_1.00_224/conv_pw_1_relu/Relu6" type="Clamp" version="opset1">
			<data min="0" max="6"/>
			<input>
				<port id="0" precision="FP32">
					<dim>1</dim>
					<dim>64</dim>
					<dim>112</dim>
					<dim>112</dim>
				</port>
			</input>
			<output>
				<port id="1" precision="FP32" names="StatefulPartitionedCall/mobilenet_1.00_224/conv_pw_1_relu/Relu6:0">
					<dim>1</dim>
					<dim>64</dim>
					<dim>112</dim>
					<dim>112</dim>
				</port>
			</output>
		</layer>
		<layer id="10" name="953312689" type="Const" version="opset1">
			<data element_type="i64" shape="4" offset="12800" size="32"/>
			<output>
				<port id="0" precision="I64">
					<dim>4</dim>
				</port>
			</output>
		</layer>
		<layer id="11" name="953912662" type="Const" version="opset1">
			<data element_type="i64" shape="4" offset="12832" size="32"/>
			<output>
				<port id="0" precision="I64">
					<dim>4</dim>
				</port>
			</output>
		</layer>
		<layer id="12" name="StatefulPartitionedCall/mobilenet_1.00_224/conv_pad_2/Pad/pad_value_convert_input_port_0/value" type="Const" version="opset1">
			<data element_type="f32" shape="" offset="12864" size="4"/>
			<output>
				<port id="0" precision="FP32"/>
			</output>
		</layer>
		<layer id="13" name="StatefulPartitionedCall/mobilenet_1.00_224/conv_pad_2/Pad/pad_value_convert" type="ConvertLike" version="opset1">
			<input>
				<port id="0" precision="FP32"/>
				<port id="1" precision="FP32">
					<dim>1</dim>
					<dim>64</dim>
					<dim>112</dim>
					<dim>112</dim>
				</port>
			</input>
			<output>
				<port id="2" precision="FP32"/>
			</output>
		</layer>
		<layer id="14" name="StatefulPartitionedCall/mobilenet_1.00_224/conv_pad_2/Pad" type="Pad" version="opset1">
			<data pad_mode="constant"/>
			<input>
				<port id="0" precision="FP32">
					<dim>1</dim>
					<dim>64</dim>
					<dim>112</dim>
					<dim>112</dim>
				</port>
				<port id="1" precision="I64">
					<dim>4</dim>
				</port>
				<port id="2" precision="I64">
					<dim>4</dim>
				</port>
				<port id="3" precision="FP32"/>
			</input>
			<output>
				<port id="4" precision="FP32" names="StatefulPartitionedCall/mobilenet_1.00_224/conv_pad_2/Pad:0">
					<dim>1</dim>
					<dim>64</dim>
					<dim>113</dim>
					<dim>113</dim>
				</port>
			</output>
		</layer>
		<layer id="15" name="StatefulPartitionedCall/mobilenet_1.00_224/conv_dw_2_bn/FusedBatchNormV3/mean/Fused_Mul__copy" type="Const" version="opset1">
			<data element_type="f32" shape="64, 1, 1, 3, 3" offset="12868" size="2304"/>
			<output>
				<port id="0" precision="FP32" names="StatefulPartitionedCall/mobilenet_1.00_224/conv_dw_2/depthwise/ReadVariableOp:0">
					<dim>64</dim>
					<dim>1</dim>
					<dim>1</dim>
					<dim>3</dim>
					<dim>3</dim>
				</port>
			</output>
		</layer>
		<layer id="16" name="StatefulPartitionedCall/mobilenet_1.00_224/conv_dw_2/depthwise" type="GroupConvolution" version="opset1">
			<data strides="2, 2" pads_begin="0, 0" pads_end="0, 0" dilations="1, 1" auto_pad="valid"/>
			<input>
				<port id="0" precision="FP32">
					<dim>1</dim>
					<dim>64</dim>
					<dim>113</dim>
					<dim>113</dim>
				</port>
				<port id="1" precision="FP32">
					<dim>64</dim>
					<dim>1</dim>
					<dim>1</dim>
					<dim>3</dim>
					<dim>3</dim>
				</port>
			</input>
			<output>
				<port id="2" precision="FP32" names="StatefulPartitionedCall/mobilenet_1.00_224/conv_dw_2_bn/FusedBatchNormV3:0">
					<dim>1</dim>
					<dim>64</dim>
					<dim>56</dim>
					<dim>56</dim>
				</port>
			</output>
		</layer>
		<layer id="17" name="StatefulPartitionedCall/mobilenet_1.00_224/conv_dw_2_relu/Relu6" type="Clamp" version="opset1">
			<data min="0" max="6"/>
			<input>
				<port id="0" precision="FP32">
					<dim>1</dim>
					<dim>64</dim>
					<dim>56</dim>
					<dim>56</dim>
				</port>
			</input>
			<output>
				<port id="1" precision="FP32" names="StatefulPartitionedCall/mobilenet_1.00_224/conv_dw_2_relu/Relu6:0">
					<dim>1</dim>
					<dim>64</dim>
					<dim>56</dim>
					<dim>56</dim>
				</port>
			</output>
		</layer>
		<layer id="18" name="StatefulPartitionedCall/mobilenet_1.00_224/conv_pw_2_bn/FusedBatchNormV3/mean/Fused_Mul__copy" type="Const" version="opset1">
			<data element_type="f32" shape="128, 64, 1, 1" offset="15172" size="32768"/>
			<output>
				<port id="0" precision="FP32" names="StatefulPartitionedCall/mobilenet_1.00_224/conv_pw_2/Conv2D/ReadVariableOp:0">
					<dim>128</dim>
					<dim>64</dim>
					<dim>1</dim>
					<dim>1</dim>
				</port>
			</output>
		</layer>
		<layer id="19" name="StatefulPartitionedCall/mobilenet_1.00_224/conv_pw_2/Conv2D" type="Convolution" version="opset1">
			<data strides="1, 1" dilations="1, 1" pads_begin="0, 0" pads_end="0, 0" auto_pad="same_upper"/>
			<input>
				<port id="0" precision="FP32">
					<dim>1</dim>
					<dim>64</dim>
					<dim>56</dim>
					<dim>56</dim>
				</port>
				<port id="1" precision="FP32">
					<dim>128</dim>
					<dim>64</dim>
					<dim>1</dim>
					<dim>1</dim>
				</port>
			</input>
			<output>
				<port id="2" precision="FP32" names="StatefulPartitionedCall/mobilenet_1.00_224/conv_pw_2_bn/FusedBatchNormV3:0">
					<dim>1</dim>
					<dim>128</dim>
					<dim>56</dim>
					<dim>56</dim>
				</port>
			</output>
		</layer>
		<layer id="20" name="StatefulPartitionedCall/mobilenet_1.00_224/conv_pw_2_relu/Relu6" type="Clamp" version="opset1">
			<data min="0" max="6"/>
			<input>
				<port id="0" precision="FP32">
					<dim>1</dim>
					<dim>128</dim>
					<dim>56</dim>
					<dim>56</dim>
				</port>
			</input>
			<output>
				<port id="1" precision="FP32" names="StatefulPartitionedCall/mobilenet_1.00_224/conv_pw_2_relu/Relu6:0">
					<dim>1</dim>
					<dim>128</dim>
					<dim>56</dim>
					<dim>56</dim>
				</port>
			</output>
		</layer>
		<layer id="21" name="StatefulPartitionedCall/mobilenet_1.00_224/conv_dw_3_bn/FusedBatchNormV3/mean/Fused_Mul__copy" type="Const" version="opset1">
			<data element_type="f32" shape="128, 1, 1, 3, 3" offset="47940" size="4608"/>
			<output>
				<port id="0" precision="FP32" names="StatefulPartitionedCall/mobilenet_1.00_224/conv_dw_3/depthwise/ReadVariableOp:0">
					<dim>128</dim>
					<dim>1</dim>
					<dim>1</dim>
					<dim>3</dim>
					<dim>3</dim>
				</port>
			</output>
		</layer>
		<layer id="22" name="StatefulPartitionedCall/mobilenet_1.00_224/conv_dw_3/depthwise" type="GroupConvolution" version="opset1">
			<data strides="1, 1" pads_begin="1, 1" pads_end="1, 1" dilations="1, 1" auto_pad="same_upper"/>
			<input>
				<port id="0" precision="FP32">
					<dim>1</dim>
					<dim>128</dim>
					<dim>56</dim>
					<dim>56</dim>
				</port>
				<port id="1" precision="FP32">
					<dim>128</dim>
					<dim>1</dim>
					<dim>1</dim>
					<dim>3</dim>
					<dim>3</dim>
				</port>
			</input>
			<output>
				<port id="2" precision="FP32" names="StatefulPartitionedCall/mobilenet_1.00_224/conv_dw_3_bn/FusedBatchNormV3:0">
					<dim>1</dim>
					<dim>128</dim>
					<dim>56</dim>
					<dim>56</dim>
				</port>
			</output>
		</layer>
		<layer id="23" name="StatefulPartitionedCall/mobilenet_1.00_224/conv_dw_3_relu/Relu6" type="Clamp" version="opset1">
			<data min="0" max="6"/>
			<input>
				<port id="0" precision="FP32">
					<dim>1</dim>
					<dim>128</dim>
					<dim>56</dim>
					<dim>56</dim>
				</port>
			</input>
			<output>
				<port id="1" precision="FP32" names="StatefulPartitionedCall/mobilenet_1.00_224/conv_dw_3_relu/Relu6:0">
					<dim>1</dim>
					<dim>128</dim>
					<dim>56</dim>
					<dim>56</dim>
				</port>
			</output>
		</layer>
		<layer id="24" name="StatefulPartitionedCall/mobilenet_1.00_224/conv_pw_3_bn/FusedBatchNormV3/mean/Fused_Mul__copy" type="Const" version="opset1">
			<data element_type="f32" shape="128, 128, 1, 1" offset="52548" size="65536"/>
			<output>
				<port id="0" precision="FP32" names="StatefulPartitionedCall/mobilenet_1.00_224/conv_pw_3/Conv2D/ReadVariableOp:0">
					<dim>128</dim>
					<dim>128</dim>
					<dim>1</dim>
					<dim>1</dim>
				</port>
			</output>
		</layer>
		<layer id="25" name="StatefulPartitionedCall/mobilenet_1.00_224/conv_pw_3/Conv2D" type="Convolution" version="opset1">
			<data strides="1, 1" dilations="1, 1" pads_begin="0, 0" pads_end="0, 0" auto_pad="same_upper"/>
			<input>
				<port id="0" precision="FP32">
					<dim>1</dim>
					<dim>128</dim>
					<dim>56</dim>
					<dim>56</dim>
				</port>
				<port id="1" precision="FP32">
					<dim>128</dim>
					<dim>128</dim>
					<dim>1</dim>
					<dim>1</dim>
				</port>
			</input>
			<output>
				<port id="2" precision="FP32" names="StatefulPartitionedCall/mobilenet_1.00_224/conv_pw_3_bn/FusedBatchNormV3:0">
					<dim>1</dim>
					<dim>128</dim>
					<dim>56</dim>
					<dim>56</dim>
				</port>
			</output>
		</layer>
		<layer id="26" name="StatefulPartitionedCall/mobilenet_1.00_224/conv_pw_3_relu/Relu6" type="Clamp" version="opset1">
			<data min="0" max="6"/>
			<input>
				<port id="0" precision="FP32">
					<dim>1</dim>
					<dim>128</dim>
					<dim>56</dim>
					<dim>56</dim>
				</port>
			</input>
			<output>
				<port id="1" precision="FP32" names="StatefulPartitionedCall/mobilenet_1.00_224/conv_pw_3_relu/Relu6:0">
					<dim>1</dim>
					<dim>128</dim>
					<dim>56</dim>
					<dim>56</dim>
				</port>
			</output>
		</layer>
		<layer id="27" name="954512638" type="Const" version="opset1">
			<data element_type="i64" shape="4" offset="12800" size="32"/>
			<output>
				<port id="0" precision="I64">
					<dim>4</dim>
				</port>
			</output>
		</layer>
		<layer id="28" name="955112599" type="Const" version="opset1">
			<data element_type="i64" shape="4" offset="12832" size="32"/>
			<output>
				<port id="0" precision="I64">
					<dim>4</dim>
				</port>
			</output>
		</layer>
		<layer id="29" name="StatefulPartitionedCall/mobilenet_1.00_224/conv_pad_4/Pad/pad_value_convert_input_port_0/value" type="Const" version="opset1">
			<data element_type="f32" shape="" offset="12864" size="4"/>
			<output>
				<port id="0" precision="FP32"/>
			</output>
		</layer>
		<layer id="30" name="StatefulPartitionedCall/mobilenet_1.00_224/conv_pad_4/Pad/pad_value_convert" type="ConvertLike" version="opset1">
			<input>
				<port id="0" precision="FP32"/>
				<port id="1" precision="FP32">
					<dim>1</dim>
					<dim>128</dim>
					<dim>56</dim>
					<dim>56</dim>
				</port>
			</input>
			<output>
				<port id="2" precision="FP32"/>
			</output>
		</layer>
		<layer id="31" name="StatefulPartitionedCall/mobilenet_1.00_224/conv_pad_4/Pad" type="Pad" version="opset1">
			<data pad_mode="constant"/>
			<input>
				<port id="0" precision="FP32">
					<dim>1</dim>
					<dim>128</dim>
					<dim>56</dim>
					<dim>56</dim>
				</port>
				<port id="1" precision="I64">
					<dim>4</dim>
				</port>
				<port id="2" precision="I64">
					<dim>4</dim>
				</port>
				<port id="3" precision="FP32"/>
			</input>
			<output>
				<port id="4" precision="FP32" names="StatefulPartitionedCall/mobilenet_1.00_224/conv_pad_4/Pad:0">
					<dim>1</dim>
					<dim>128</dim>
					<dim>57</dim>
					<dim>57</dim>
				</port>
			</output>
		</layer>
		<layer id="32" name="StatefulPartitionedCall/mobilenet_1.00_224/conv_dw_4_bn/FusedBatchNormV3/mean/Fused_Mul__copy" type="Const" version="opset1">
			<data element_type="f32" shape="128, 1, 1, 3, 3" offset="118084" size="4608"/>
			<output>
				<port id="0" precision="FP32" names="StatefulPartitionedCall/mobilenet_1.00_224/conv_dw_4/depthwise/ReadVariableOp:0">
					<dim>128</dim>
					<dim>1</dim>
					<dim>1</dim>
					<dim>3</dim>
					<dim>3</dim>
				</port>
			</output>
		</layer>
		<layer id="33" name="StatefulPartitionedCall/mobilenet_1.00_224/conv_dw_4/depthwise" type="GroupConvolution" version="opset1">
			<data strides="2, 2" pads_begin="0, 0" pads_end="0, 0" dilations="1, 1" auto_pad="valid"/>
			<input>
				<port id="0" precision="FP32">
					<dim>1</dim>
					<dim>128</dim>
					<dim>57</dim>
					<dim>57</dim>
				</port>
				<port id="1" precision="FP32">
					<dim>128</dim>
					<dim>1</dim>
					<dim>1</dim>
					<dim>3</dim>
					<dim>3</dim>
				</port>
			</input>
			<output>
				<port id="2" precision="FP32" names="StatefulPartitionedCall/mobilenet_1.00_224/conv_dw_4_bn/FusedBatchNormV3:0">
					<dim>1</dim>
					<dim>128</dim>
					<dim>28</dim>
					<dim>28</dim>
				</port>
			</output>
		</layer>
		<layer id="34" name="StatefulPartitionedCall/mobilenet_1.00_224/conv_dw_4_relu/Relu6" type="Clamp" version="opset1">
			<data min="0" max="6"/>
			<input>
				<port id="0" precision="FP32">
					<dim>1</dim>
					<dim>128</dim>
					<dim>28</dim>
					<dim>28</dim>
				</port>
			</input>
			<output>
				<port id="1" precision="FP32" names="StatefulPartitionedCall/mobilenet_1.00_224/conv_dw_4_relu/Relu6:0">
					<dim>1</dim>
					<dim>128</dim>
					<dim>28</dim>
					<dim>28</dim>
				</port>
			</output>
		</layer>
		<layer id="35" name="StatefulPartitionedCall/mobilenet_1.00_224/conv_pw_4_bn/FusedBatchNormV3/mean/Fused_Mul__copy" type="Const" version="opset1">
			<data element_type="f32" shape="256, 128, 1, 1" offset="122692" size="131072"/>
			<output>
				<port id="0" precision="FP32" names="StatefulPartitionedCall/mobilenet_1.00_224/conv_pw_4/Conv2D/ReadVariableOp:0">
					<dim>256</dim>
					<dim>128</dim>
					<dim>1</dim>
					<dim>1</dim>
				</port>
			</output>
		</layer>
		<layer id="36" name="StatefulPartitionedCall/mobilenet_1.00_224/conv_pw_4/Conv2D" type="Convolution" version="opset1">
			<data strides="1, 1" dilations="1, 1" pads_begin="0, 0" pads_end="0, 0" auto_pad="same_upper"/>
			<input>
				<port id="0" precision="FP32">
					<dim>1</dim>
					<dim>128</dim>
					<dim>28</dim>
					<dim>28</dim>
				</port>
				<port id="1" precision="FP32">
					<dim>256</dim>
					<dim>128</dim>
					<dim>1</dim>
					<dim>1</dim>
				</port>
			</input>
			<output>
				<port id="2" precision="FP32" names="StatefulPartitionedCall/mobilenet_1.00_224/conv_pw_4_bn/FusedBatchNormV3:0">
					<dim>1</dim>
					<dim>256</dim>
					<dim>28</dim>
					<dim>28</dim>
				</port>
			</output>
		</layer>
		<layer id="37" name="StatefulPartitionedCall/mobilenet_1.00_224/conv_pw_4_relu/Relu6" type="Clamp" version="opset1">
			<data min="0" max="6"/>
			<input>
				<port id="0" precision="FP32">
					<dim>1</dim>
					<dim>256</dim>
					<dim>28</dim>
					<dim>28</dim>
				</port>
			</input>
			<output>
				<port id="1" precision="FP32" names="StatefulPartitionedCall/mobilenet_1.00_224/conv_pw_4_relu/Relu6:0">
					<dim>1</dim>
					<dim>256</dim>
					<dim>28</dim>
					<dim>28</dim>
				</port>
			</output>
		</layer>
		<layer id="38" name="StatefulPartitionedCall/mobilenet_1.00_224/conv_dw_5_bn/FusedBatchNormV3/mean/Fused_Mul__copy" type="Const" version="opset1">
			<data element_type="f32" shape="256, 1, 1, 3, 3" offset="253764" size="9216"/>
			<output>
				<port id="0" precision="FP32" names="StatefulPartitionedCall/mobilenet_1.00_224/conv_dw_5/depthwise/ReadVariableOp:0">
					<dim>256</dim>
					<dim>1</dim>
					<dim>1</dim>
					<dim>3</dim>
					<dim>3</dim>
				</port>
			</output>
		</layer>
		<layer id="39" name="StatefulPartitionedCall/mobilenet_1.00_224/conv_dw_5/depthwise" type="GroupConvolution" version="opset1">
			<data strides="1, 1" pads_begin="1, 1" pads_end="1, 1" dilations="1, 1" auto_pad="same_upper"/>
			<input>
				<port id="0" precision="FP32">
					<dim>1</dim>
					<dim>256</dim>
					<dim>28</dim>
					<dim>28</dim>
				</port>
				<port id="1" precision="FP32">
					<dim>256</dim>
					<dim>1</dim>
					<dim>1</dim>
					<dim>3</dim>
					<dim>3</dim>
				</port>
			</input>
			<output>
				<port id="2" precision="FP32" names="StatefulPartitionedCall/mobilenet_1.00_224/conv_dw_5_bn/FusedBatchNormV3:0">
					<dim>1</dim>
					<dim>256</dim>
					<dim>28</dim>
					<dim>28</dim>
				</port>
			</output>
		</layer>
		<layer id="40" name="StatefulPartitionedCall/mobilenet_1.00_224/conv_dw_5_relu/Relu6" type="Clamp" version="opset1">
			<data min="0" max="6"/>
			<input>
				<port id="0" precision="FP32">
					<dim>1</dim>
					<dim>256</dim>
					<dim>28</dim>
					<dim>28</dim>
				</port>
			</input>
			<output>
				<port id="1" precision="FP32" names="StatefulPartitionedCall/mobilenet_1.00_224/conv_dw_5_relu/Relu6:0">
					<dim>1</dim>
					<dim>256</dim>
					<dim>28</dim>
					<dim>28</dim>
				</port>
			</output>
		</layer>
		<layer id="41" name="StatefulPartitionedCall/mobilenet_1.00_224/conv_pw_5_bn/FusedBatchNormV3/mean/Fused_Mul__copy" type="Const" version="opset1">
			<data element_type="f32" shape="256, 256, 1, 1" offset="262980" size="262144"/>
			<output>
				<port id="0" precision="FP32" names="StatefulPartitionedCall/mobilenet_1.00_224/conv_pw_5/Conv2D/ReadVariableOp:0">
					<dim>256</dim>
					<dim>256</dim>
					<dim>1</dim>
					<dim>1</dim>
				</port>
			</output>
		</layer>
		<layer id="42" name="StatefulPartitionedCall/mobilenet_1.00_224/conv_pw_5/Conv2D" type="Convolution" version="opset1">
			<data strides="1, 1" dilations="1, 1" pads_begin="0, 0" pads_end="0, 0" auto_pad="same_upper"/>
			<input>
				<port id="0" precision="FP32">
					<dim>1</dim>
					<dim>256</dim>
					<dim>28</dim>
					<dim>28</dim>
				</port>
				<port id="1" precision="FP32">
					<dim>256</dim>
					<dim>256</dim>
					<dim>1</dim>
					<dim>1</dim>
				</port>
			</input>
			<output>
				<port id="2" precision="FP32" names="StatefulPartitionedCall/mobilenet_1.00_224/conv_pw_5_bn/FusedBatchNormV3:0">
					<dim>1</dim>
					<dim>256</dim>
					<dim>28</dim>
					<dim>28</dim>
				</port>
			</output>
		</layer>
		<layer id="43" name="StatefulPartitionedCall/mobilenet_1.00_224/conv_pw_5_relu/Relu6" type="Clamp" version="opset1">
			<data min="0" max="6"/>
			<input>
				<port id="0" precision="FP32">
					<dim>1</dim>
					<dim>256</dim>
					<dim>28</dim>
					<dim>28</dim>
				</port>
			</input>
			<output>
				<port id="1" precision="FP32" names="StatefulPartitionedCall/mobilenet_1.00_224/conv_pw_5_relu/Relu6:0">
					<dim>1</dim>
					<dim>256</dim>
					<dim>28</dim>
					<dim>28</dim>
				</port>
			</output>
		</layer>
		<layer id="44" name="955712665" type="Const" version="opset1">
			<data element_type="i64" shape="4" offset="12800" size="32"/>
			<output>
				<port id="0" precision="I64">
					<dim>4</dim>
				</port>
			</output>
		</layer>
		<layer id="45" name="956312623" type="Const" version="opset1">
			<data element_type="i64" shape="4" offset="12832" size="32"/>
			<output>
				<port id="0" precision="I64">
					<dim>4</dim>
				</port>
			</output>
		</layer>
		<layer id="46" name="StatefulPartitionedCall/mobilenet_1.00_224/conv_pad_6/Pad/pad_value_convert_input_port_0/value" type="Const" version="opset1">
			<data element_type="f32" shape="" offset="12864" size="4"/>
			<output>
				<port id="0" precision="FP32"/>
			</output>
		</layer>
		<layer id="47" name="StatefulPartitionedCall/mobilenet_1.00_224/conv_pad_6/Pad/pad_value_convert" type="ConvertLike" version="opset1">
			<input>
				<port id="0" precision="FP32"/>
				<port id="1" precision="FP32">
					<dim>1</dim>
					<dim>256</dim>
					<dim>28</dim>
					<dim>28</dim>
				</port>
			</input>
			<output>
				<port id="2" precision="FP32"/>
			</output>
		</layer>
		<layer id="48" name="StatefulPartitionedCall/mobilenet_1.00_224/conv_pad_6/Pad" type="Pad" version="opset1">
			<data pad_mode="constant"/>
			<input>
				<port id="0" precision="FP32">
					<dim>1</dim>
					<dim>256</dim>
					<dim>28</dim>
					<dim>28</dim>
				</port>
				<port id="1" precision="I64">
					<dim>4</dim>
				</port>
				<port id="2" precision="I64">
					<dim>4</dim>
				</port>
				<port id="3" precision="FP32"/>
			</input>
			<output>
				<port id="4" precision="FP32" names="StatefulPartitionedCall/mobilenet_1.00_224/conv_pad_6/Pad:0">
					<dim>1</dim>
					<dim>256</dim>
					<dim>29</dim>
					<dim>29</dim>
				</port>
			</output>
		</layer>
		<layer id="49" name="StatefulPartitionedCall/mobilenet_1.00_224/conv_dw_6_bn/FusedBatchNormV3/mean/Fused_Mul__copy" type="Const" version="opset1">
			<data element_type="f32" shape="256, 1, 1, 3, 3" offset="525124" size="9216"/>
			<output>
				<port id="0" precision="FP32" names="StatefulPartitionedCall/mobilenet_1.00_224/conv_dw_6/depthwise/ReadVariableOp:0">
					<dim>256</dim>
					<dim>1</dim>
					<dim>1</dim>
					<dim>3</dim>
					<dim>3</dim>
				</port>
			</output>
		</layer>
		<layer id="50" name="StatefulPartitionedCall/mobilenet_1.00_224/conv_dw_6/depthwise" type="GroupConvolution" version="opset1">
			<data strides="2, 2" pads_begin="0, 0" pads_end="0, 0" dilations="1, 1" auto_pad="valid"/>
			<input>
				<port id="0" precision="FP32">
					<dim>1</dim>
					<dim>256</dim>
					<dim>29</dim>
					<dim>29</dim>
				</port>
				<port id="1" precision="FP32">
					<dim>256</dim>
					<dim>1</dim>
					<dim>1</dim>
					<dim>3</dim>
					<dim>3</dim>
				</port>
			</input>
			<output>
				<port id="2" precision="FP32" names="StatefulPartitionedCall/mobilenet_1.00_224/conv_dw_6_bn/FusedBatchNormV3:0">
					<dim>1</dim>
					<dim>256</dim>
					<dim>14</dim>
					<dim>14</dim>
				</port>
			</output>
		</layer>
		<layer id="51" name="StatefulPartitionedCall/mobilenet_1.00_224/conv_dw_6_relu/Relu6" type="Clamp" version="opset1">
			<data min="0" max="6"/>
			<input>
				<port id="0" precision="FP32">
					<dim>1</dim>
					<dim>256</dim>
					<dim>14</dim>
					<dim>14</dim>
				</port>
			</input>
			<output>
				<port id="1" precision="FP32" names="StatefulPartitionedCall/mobilenet_1.00_224/conv_dw_6_relu/Relu6:0">
					<dim>1</dim>
					<dim>256</dim>
					<dim>14</dim>
					<dim>14</dim>
				</port>
			</output>
		</layer>
		<layer id="52" name="StatefulPartitionedCall/mobilenet_1.00_224/conv_pw_6_bn/FusedBatchNormV3/mean/Fused_Mul__copy" type="Const" version="opset1">
			<data element_type="f32" shape="512, 256, 1, 1" offset="534340" size="524288"/>
			<output>
				<port id="0" precision="FP32" names="StatefulPartitionedCall/mobilenet_1.00_224/conv_pw_6/Conv2D/ReadVariableOp:0">
					<dim>512</dim>
					<dim>256</dim>
					<dim>1</dim>
					<dim>1</dim>
				</port>
			</output>
		</layer>
		<layer id="53" name="StatefulPartitionedCall/mobilenet_1.00_224/conv_pw_6/Conv2D" type="Convolution" version="opset1">
			<data strides="1, 1" dilations="1, 1" pads_begin="0, 0" pads_end="0, 0" auto_pad="same_upper"/>
			<input>
				<port id="0" precision="FP32">
					<dim>1</dim>
					<dim>256</dim>
					<dim>14</dim>
					<dim>14</dim>
				</port>
				<port id="1" precision="FP32">
					<dim>512</dim>
					<dim>256</dim>
					<dim>1</dim>
					<dim>1</dim>
				</port>
			</input>
			<output>
				<port id="2" precision="FP32" names="StatefulPartitionedCall/mobilenet_1.00_224/conv_pw_6_bn/FusedBatchNormV3:0">
					<dim>1</dim>
					<dim>512</dim>
					<dim>14</dim>
					<dim>14</dim>
				</port>
			</output>
		</layer>
		<layer id="54" name="StatefulPartitionedCall/mobilenet_1.00_224/conv_pw_6_relu/Relu6" type="Clamp" version="opset1">
			<data min="0" max="6"/>
			<input>
				<port id="0" precision="FP32">
					<dim>1</dim>
					<dim>512</dim>
					<dim>14</dim>
					<dim>14</dim>
				</port>
			</input>
			<output>
				<port id="1" precision="FP32" names="StatefulPartitionedCall/mobilenet_1.00_224/conv_pw_6_relu/Relu6:0">
					<dim>1</dim>
					<dim>512</dim>
					<dim>14</dim>
					<dim>14</dim>
				</port>
			</output>
		</layer>
		<layer id="55" name="StatefulPartitionedCall/mobilenet_1.00_224/conv_dw_7_bn/FusedBatchNormV3/mean/Fused_Mul__copy" type="Const" version="opset1">
			<data element_type="f32" shape="512, 1, 1, 3, 3" offset="1058628" size="18432"/>
			<output>
				<port id="0" precision="FP32" names="StatefulPartitionedCall/mobilenet_1.00_224/conv_dw_7/depthwise/ReadVariableOp:0">
					<dim>512</dim>
					<dim>1</dim>
					<dim>1</dim>
					<dim>3</dim>
					<dim>3</dim>
				</port>
			</output>
		</layer>
		<layer id="56" name="StatefulPartitionedCall/mobilenet_1.00_224/conv_dw_7/depthwise" type="GroupConvolution" version="opset1">
			<data strides="1, 1" pads_begin="1, 1" pads_end="1, 1" dilations="1, 1" auto_pad="same_upper"/>
			<input>
				<port id="0" precision="FP32">
					<dim>1</dim>
					<dim>512</dim>
					<dim>14</dim>
					<dim>14</dim>
				</port>
				<port id="1" precision="FP32">
					<dim>512</dim>
					<dim>1</dim>
					<dim>1</dim>
					<dim>3</dim>
					<dim>3</dim>
				</port>
			</input>
			<output>
				<port id="2" precision="FP32" names="StatefulPartitionedCall/mobilenet_1.00_224/conv_dw_7_bn/FusedBatchNormV3:0">
					<dim>1</dim>
					<dim>512</dim>
					<dim>14</dim>
					<dim>14</dim>
				</port>
			</output>
		</layer>
		<layer id="57" name="StatefulPartitionedCall/mobilenet_1.00_224/conv_dw_7_relu/Relu6" type="Clamp" version="opset1">
			<data min="0" max="6"/>
			<input>
				<port id="0" precision="FP32">
					<dim>1</dim>
					<dim>512</dim>
					<dim>14</dim>
					<dim>14</dim>
				</port>
			</input>
			<output>
				<port id="1" precision="FP32" names="StatefulPartitionedCall/mobilenet_1.00_224/conv_dw_7_relu/Relu6:0">
					<dim>1</dim>
					<dim>512</dim>
					<dim>14</dim>
					<dim>14</dim>
				</port>
			</output>
		</layer>
		<layer id="58" name="StatefulPartitionedCall/mobilenet_1.00_224/conv_pw_7_bn/FusedBatchNormV3/mean/Fused_Mul__copy" type="Const" version="opset1">
			<data element_type="f32" shape="512, 512, 1, 1" offset="1077060" size="1048576"/>
			<output>
				<port id="0" precision="FP32" names="StatefulPartitionedCall/mobilenet_1.00_224/conv_pw_7/Conv2D/ReadVariableOp:0">
					<dim>512</dim>
					<dim>512</dim>
					<dim>1</dim>
					<dim>1</dim>
				</port>
			</output>
		</layer>
		<layer id="59" name="StatefulPartitionedCall/mobilenet_1.00_224/conv_pw_7/Conv2D" type="Convolution" version="opset1">
			<data strides="1, 1" dilations="1, 1" pads_begin="0, 0" pads_end="0, 0" auto_pad="same_upper"/>
			<input>
				<port id="0" precision="FP32">
					<dim>1</dim>
					<dim>512</dim>
					<dim>14</dim>
					<dim>14</dim>
				</port>
				<port id="1" precision="FP32">
					<dim>512</dim>
					<dim>512</dim>
					<dim>1</dim>
					<dim>1</dim>
				</port>
			</input>
			<output>
				<port id="2" precision="FP32" names="StatefulPartitionedCall/mobilenet_1.00_224/conv_pw_7_bn/FusedBatchNormV3:0">
					<dim>1</dim>
					<dim>512</dim>
					<dim>14</dim>
					<dim>14</dim>
				</port>
			</output>
		</layer>
		<layer id="60" name="StatefulPartitionedCall/mobilenet_1.00_224/conv_pw_7_relu/Relu6" type="Clamp" version="opset1">
			<data min="0" max="6"/>
			<input>
				<port id="0" precision="FP32">
					<dim>1</dim>
					<dim>512</dim>
					<dim>14</dim>
					<dim>14</dim>
				</port>
			</input>
			<output>
				<port id="1" precision="FP32" names="StatefulPartitionedCall/mobilenet_1.00_224/conv_pw_7_relu/Relu6:0">
					<dim>1</dim>
					<dim>512</dim>
					<dim>14</dim>
					<dim>14</dim>
				</port>
			</output>
		</layer>
		<layer id="61" name="StatefulPartitionedCall/mobilenet_1.00_224/conv_dw_8_bn/FusedBatchNormV3/mean/Fused_Mul__copy" type="Const" version="opset1">
			<data element_type="f32" shape="512, 1, 1, 3, 3" offset="2125636" size="18432"/>
			<output>
				<port id="0" precision="FP32" names="StatefulPartitionedCall/mobilenet_1.00_224/conv_dw_8/depthwise/ReadVariableOp:0">
					<dim>512</dim>
					<dim>1</dim>
					<dim>1</dim>
					<dim>3</dim>
					<dim>3</dim>
				</port>
			</output>
		</layer>
		<layer id="62" name="StatefulPartitionedCall/mobilenet_1.00_224/conv_dw_8/depthwise" type="GroupConvolution" version="opset1">
			<data strides="1, 1" pads_begin="1, 1" pads_end="1, 1" dilations="1, 1" auto_pad="same_upper"/>
			<input>
				<port id="0" precision="FP32">
					<dim>1</dim>
					<dim>512</dim>
					<dim>14</dim>
					<dim>14</dim>
				</port>
				<port id="1" precision="FP32">
					<dim>512</dim>
					<dim>1</dim>
					<dim>1</dim>
					<dim>3</dim>
					<dim>3</dim>
				</port>
			</input>
			<output>
				<port id="2" precision="FP32" names="StatefulPartitionedCall/mobilenet_1.00_224/conv_dw_8_bn/FusedBatchNormV3:0">
					<dim>1</dim>
					<dim>512</dim>
					<dim>14</dim>
					<dim>14</dim>
				</port>
			</output>
		</layer>
		<layer id="63" name="StatefulPartitionedCall/mobilenet_1.00_224/conv_dw_8_relu/Relu6" type="Clamp" version="opset1">
			<data min="0" max="6"/>
			<input>
				<port id="0" precision="FP32">
					<dim>1</dim>
					<dim>512</dim>
					<dim>14</dim>
					<dim>14</dim>
				</port>
			</input>
			<output>
				<port id="1" precision="FP32" names="StatefulPartitionedCall/mobilenet_1.00_224/conv_dw_8_relu/Relu6:0">
					<dim>1</dim>
					<dim>512</dim>
					<dim>14</dim>
					<dim>14</dim>
				</port>
			</output>
		</layer>
		<layer id="64" name="StatefulPartitionedCall/mobilenet_1.00_224/conv_pw_8_bn/FusedBatchNormV3/mean/Fused_Mul__copy" type="Const" version="opset1">
			<data element_type="f32" shape="512, 512, 1, 1" offset="2144068" size="1048576"/>
			<output>
				<port id="0" precision="FP32" names="StatefulPartitionedCall/mobilenet_1.00_224/conv_pw_8/Conv2D/ReadVariableOp:0">
					<dim>512</dim>
					<dim>512</dim>
					<dim>1</dim>
					<dim>1</dim>
				</port>
			</output>
		</layer>
		<layer id="65" name="StatefulPartitionedCall/mobilenet_1.00_224/conv_pw_8/Conv2D" type="Convolution" version="opset1">
			<data strides="1, 1" dilations="1, 1" pads_begin="0, 0" pads_end="0, 0" auto_pad="same_upper"/>
			<input>
				<port id="0" precision="FP32">
					<dim>1</dim>
					<dim>512</dim>
					<dim>14</dim>
					<dim>14</dim>
				</port>
				<port id="1" precision="FP32">
					<dim>512</dim>
					<dim>512</dim>
					<dim>1</dim>
					<dim>1</dim>
				</port>
			</input>
			<output>
				<port id="2" precision="FP32" names="StatefulPartitionedCall/mobilenet_1.00_224/conv_pw_8_bn/FusedBatchNormV3:0">
					<dim>1</dim>
					<dim>512</dim>
					<dim>14</dim>
					<dim>14</dim>
				</port>
			</output>
		</layer>
		<layer id="66" name="StatefulPartitionedCall/mobilenet_1.00_224/conv_pw_8_relu/Relu6" type="Clamp" version="opset1">
			<data min="0" max="6"/>
			<input>
				<port id="0" precision="FP32">
					<dim>1</dim>
					<dim>512</dim>
					<dim>14</dim>
					<dim>14</dim>
				</port>
			</input>
			<output>
				<port id="1" precision="FP32" names="StatefulPartitionedCall/mobilenet_1.00_224/conv_pw_8_relu/Relu6:0">
					<dim>1</dim>
					<dim>512</dim>
					<dim>14</dim>
					<dim>14</dim>
				</port>
			</output>
		</layer>
		<layer id="67" name="StatefulPartitionedCall/mobilenet_1.00_224/conv_dw_9_bn/FusedBatchNormV3/mean/Fused_Mul__copy" type="Const" version="opset1">
			<data element_type="f32" shape="512, 1, 1, 3, 3" offset="3192644" size="18432"/>
			<output>
				<port id="0" precision="FP32" names="StatefulPartitionedCall/mobilenet_1.00_224/conv_dw_9/depthwise/ReadVariableOp:0">
					<dim>512</dim>
					<dim>1</dim>
					<dim>1</dim>
					<dim>3</dim>
					<dim>3</dim>
				</port>
			</output>
		</layer>
		<layer id="68" name="StatefulPartitionedCall/mobilenet_1.00_224/conv_dw_9/depthwise" type="GroupConvolution" version="opset1">
			<data strides="1, 1" pads_begin="1, 1" pads_end="1, 1" dilations="1, 1" auto_pad="same_upper"/>
			<input>
				<port id="0" precision="FP32">
					<dim>1</dim>
					<dim>512</dim>
					<dim>14</dim>
					<dim>14</dim>
				</port>
				<port id="1" precision="FP32">
					<dim>512</dim>
					<dim>1</dim>
					<dim>1</dim>
					<dim>3</dim>
					<dim>3</dim>
				</port>
			</input>
			<output>
				<port id="2" precision="FP32" names="StatefulPartitionedCall/mobilenet_1.00_224/conv_dw_9_bn/FusedBatchNormV3:0">
					<dim>1</dim>
					<dim>512</dim>
					<dim>14</dim>
					<dim>14</dim>
				</port>
			</output>
		</layer>
		<layer id="69" name="StatefulPartitionedCall/mobilenet_1.00_224/conv_dw_9_relu/Relu6" type="Clamp" version="opset1">
			<data min="0" max="6"/>
			<input>
				<port id="0" precision="FP32">
					<dim>1</dim>
					<dim>512</dim>
					<dim>14</dim>
					<dim>14</dim>
				</port>
			</input>
			<output>
				<port id="1" precision="FP32" names="StatefulPartitionedCall/mobilenet_1.00_224/conv_dw_9_relu/Relu6:0">
					<dim>1</dim>
					<dim>512</dim>
					<dim>14</dim>
					<dim>14</dim>
				</port>
			</output>
		</layer>
		<layer id="70" name="StatefulPartitionedCall/mobilenet_1.00_224/conv_pw_9_bn/FusedBatchNormV3/mean/Fused_Mul__copy" type="Const" version="opset1">
			<data element_type="f32" shape="512, 512, 1, 1" offset="3211076" size="1048576"/>
			<output>
				<port id="0" precision="FP32" names="StatefulPartitionedCall/mobilenet_1.00_224/conv_pw_9/Conv2D/ReadVariableOp:0">
					<dim>512</dim>
					<dim>512</dim>
					<dim>1</dim>
					<dim>1</dim>
				</port>
			</output>
		</layer>
		<layer id="71" name="StatefulPartitionedCall/mobilenet_1.00_224/conv_pw_9/Conv2D" type="Convolution" version="opset1">
			<data strides="1, 1" dilations="1, 1" pads_begin="0, 0" pads_end="0, 0" auto_pad="same_upper"/>
			<input>
				<port id="0" precision="FP32">
					<dim>1</dim>
					<dim>512</dim>
					<dim>14</dim>
					<dim>14</dim>
				</port>
				<port id="1" precision="FP32">
					<dim>512</dim>
					<dim>512</dim>
					<dim>1</dim>
					<dim>1</dim>
				</port>
			</input>
			<output>
				<port id="2" precision="FP32" names="StatefulPartitionedCall/mobilenet_1.00_224/conv_pw_9_bn/FusedBatchNormV3:0">
					<dim>1</dim>
					<dim>512</dim>
					<dim>14</dim>
					<dim>14</dim>
				</port>
			</output>
		</layer>
		<layer id="72" name="StatefulPartitionedCall/mobilenet_1.00_224/conv_pw_9_relu/Relu6" type="Clamp" version="opset1">
			<data min="0" max="6"/>
			<input>
				<port id="0" precision="FP32">
					<dim>1</dim>
					<dim>512</dim>
					<dim>14</dim>
					<dim>14</dim>
				</port>
			</input>
			<output>
				<port id="1" precision="FP32" names="StatefulPartitionedCall/mobilenet_1.00_224/conv_pw_9_relu/Relu6:0">
					<dim>1</dim>
					<dim>512</dim>
					<dim>14</dim>
					<dim>14</dim>
				</port>
			</output>
		</layer>
		<layer id="73" name="StatefulPartitionedCall/mobilenet_1.00_224/conv_dw_10_bn/FusedBatchNormV3/mean/Fused_Mul__copy" type="Const" version="opset1">
			<data element_type="f32" shape="512, 1, 1, 3, 3" offset="4259652" size="18432"/>
			<output>
				<port id="0" precision="FP32" names="StatefulPartitionedCall/mobilenet_1.00_224/conv_dw_10/depthwise/ReadVariableOp:0">
					<dim>512</dim>
					<dim>1</dim>
					<dim>1</dim>
					<dim>3</dim>
					<dim>3</dim>
				</port>
			</output>
		</layer>
		<layer id="74" name="StatefulPartitionedCall/mobilenet_1.00_224/conv_dw_10/depthwise" type="GroupConvolution" version="opset1">
			<data strides="1, 1" pads_begin="1, 1" pads_end="1, 1" dilations="1, 1" auto_pad="same_upper"/>
			<input>
				<port id="0" precision="FP32">
					<dim>1</dim>
					<dim>512</dim>
					<dim>14</dim>
					<dim>14</dim>
				</port>
				<port id="1" precision="FP32">
					<dim>512</dim>
					<dim>1</dim>
					<dim>1</dim>
					<dim>3</dim>
					<dim>3</dim>
				</port>
			</input>
			<output>
				<port id="2" precision="FP32" names="StatefulPartitionedCall/mobilenet_1.00_224/conv_dw_10_bn/FusedBatchNormV3:0">
					<dim>1</dim>
					<dim>512</dim>
					<dim>14</dim>
					<dim>14</dim>
				</port>
			</output>
		</layer>
		<layer id="75" name="StatefulPartitionedCall/mobilenet_1.00_224/conv_dw_10_relu/Relu6" type="Clamp" version="opset1">
			<data min="0" max="6"/>
			<input>
				<port id="0" precision="FP32">
					<dim>1</dim>
					<dim>512</dim>
					<dim>14</dim>
					<dim>14</dim>
				</port>
			</input>
			<output>
				<port id="1" precision="FP32" names="StatefulPartitionedCall/mobilenet_1.00_224/conv_dw_10_relu/Relu6:0">
					<dim>1</dim>
					<dim>512</dim>
					<dim>14</dim>
					<dim>14</dim>
				</port>
			</output>
		</layer>
		<layer id="76" name="StatefulPartitionedCall/mobilenet_1.00_224/conv_pw_10_bn/FusedBatchNormV3/mean/Fused_Mul__copy" type="Const" version="opset1">
			<data element_type="f32" shape="512, 512, 1, 1" offset="4278084" size="1048576"/>
			<output>
				<port id="0" precision="FP32" names="StatefulPartitionedCall/mobilenet_1.00_224/conv_pw_10/Conv2D/ReadVariableOp:0">
					<dim>512</dim>
					<dim>512</dim>
					<dim>1</dim>
					<dim>1</dim>
				</port>
			</output>
		</layer>
		<layer id="77" name="StatefulPartitionedCall/mobilenet_1.00_224/conv_pw_10/Conv2D" type="Convolution" version="opset1">
			<data strides="1, 1" dilations="1, 1" pads_begin="0, 0" pads_end="0, 0" auto_pad="same_upper"/>
			<input>
				<port id="0" precision="FP32">
					<dim>1</dim>
					<dim>512</dim>
					<dim>14</dim>
					<dim>14</dim>
				</port>
				<port id="1" precision="FP32">
					<dim>512</dim>
					<dim>512</dim>
					<dim>1</dim>
					<dim>1</dim>
				</port>
			</input>
			<output>
				<port id="2" precision="FP32" names="StatefulPartitionedCall/mobilenet_1.00_224/conv_pw_10_bn/FusedBatchNormV3:0">
					<dim>1</dim>
					<dim>512</dim>
					<dim>14</dim>
					<dim>14</dim>
				</port>
			</output>
		</layer>
		<layer id="78" name="StatefulPartitionedCall/mobilenet_1.00_224/conv_pw_10_relu/Relu6" type="Clamp" version="opset1">
			<data min="0" max="6"/>
			<input>
				<port id="0" precision="FP32">
					<dim>1</dim>
					<dim>512</dim>
					<dim>14</dim>
					<dim>14</dim>
				</port>
			</input>
			<output>
				<port id="1" precision="FP32" names="StatefulPartitionedCall/mobilenet_1.00_224/conv_pw_10_relu/Relu6:0">
					<dim>1</dim>
					<dim>512</dim>
					<dim>14</dim>
					<dim>14</dim>
				</port>
			</output>
		</layer>
		<layer id="79" name="StatefulPartitionedCall/mobilenet_1.00_224/conv_dw_11_bn/FusedBatchNormV3/mean/Fused_Mul__copy" type="Const" version="opset1">
			<data element_type="f32" shape="512, 1, 1, 3, 3" offset="5326660" size="18432"/>
			<output>
				<port id="0" precision="FP32" names="StatefulPartitionedCall/mobilenet_1.00_224/conv_dw_11/depthwise/ReadVariableOp:0">
					<dim>512</dim>
					<dim>1</dim>
					<dim>1</dim>
					<dim>3</dim>
					<dim>3</dim>
				</port>
			</output>
		</layer>
		<layer id="80" name="StatefulPartitionedCall/mobilenet_1.00_224/conv_dw_11/depthwise" type="GroupConvolution" version="opset1">
			<data strides="1, 1" pads_begin="1, 1" pads_end="1, 1" dilations="1, 1" auto_pad="same_upper"/>
			<input>
				<port id="0" precision="FP32">
					<dim>1</dim>
					<dim>512</dim>
					<dim>14</dim>
					<dim>14</dim>
				</port>
				<port id="1" precision="FP32">
					<dim>512</dim>
					<dim>1</dim>
					<dim>1</dim>
					<dim>3</dim>
					<dim>3</dim>
				</port>
			</input>
			<output>
				<port id="2" precision="FP32" names="StatefulPartitionedCall/mobilenet_1.00_224/conv_dw_11_bn/FusedBatchNormV3:0">
					<dim>1</dim>
					<dim>512</dim>
					<dim>14</dim>
					<dim>14</dim>
				</port>
			</output>
		</layer>
		<layer id="81" name="StatefulPartitionedCall/mobilenet_1.00_224/conv_dw_11_relu/Relu6" type="Clamp" version="opset1">
			<data min="0" max="6"/>
			<input>
				<port id="0" precision="FP32">
					<dim>1</dim>
					<dim>512</dim>
					<dim>14</dim>
					<dim>14</dim>
				</port>
			</input>
			<output>
				<port id="1" precision="FP32" names="StatefulPartitionedCall/mobilenet_1.00_224/conv_dw_11_relu/Relu6:0">
					<dim>1</dim>
					<dim>512</dim>
					<dim>14</dim>
					<dim>14</dim>
				</port>
			</output>
		</layer>
		<layer id="82" name="StatefulPartitionedCall/mobilenet_1.00_224/conv_pw_11_bn/FusedBatchNormV3/mean/Fused_Mul__copy" type="Const" version="opset1">
			<data element_type="f32" shape="512, 512, 1, 1" offset="5345092" size="1048576"/>
			<output>
				<port id="0" precision="FP32" names="StatefulPartitionedCall/mobilenet_1.00_224/conv_pw_11/Conv2D/ReadVariableOp:0">
					<dim>512</dim>
					<dim>512</dim>
					<dim>1</dim>
					<dim>1</dim>
				</port>
			</output>
		</layer>
		<layer id="83" name="StatefulPartitionedCall/mobilenet_1.00_224/conv_pw_11/Conv2D" type="Convolution" version="opset1">
			<data strides="1, 1" dilations="1, 1" pads_begin="0, 0" pads_end="0, 0" auto_pad="same_upper"/>
			<input>
				<port id="0" precision="FP32">
					<dim>1</dim>
					<dim>512</dim>
					<dim>14</dim>
					<dim>14</dim>
				</port>
				<port id="1" precision="FP32">
					<dim>512</dim>
					<dim>512</dim>
					<dim>1</dim>
					<dim>1</dim>
				</port>
			</input>
			<output>
				<port id="2" precision="FP32" names="StatefulPartitionedCall/mobilenet_1.00_224/conv_pw_11_bn/FusedBatchNormV3:0">
					<dim>1</dim>
					<dim>512</dim>
					<dim>14</dim>
					<dim>14</dim>
				</port>
			</output>
		</layer>
		<layer id="84" name="StatefulPartitionedCall/mobilenet_1.00_224/conv_pw_11_relu/Relu6" type="Clamp" version="opset1">
			<data min="0" max="6"/>
			<input>
				<port id="0" precision="FP32">
					<dim>1</dim>
					<dim>512</dim>
					<dim>14</dim>
					<dim>14</dim>
				</port>
			</input>
			<output>
				<port id="1" precision="FP32" names="StatefulPartitionedCall/mobilenet_1.00_224/conv_pw_11_relu/Relu6:0">
					<dim>1</dim>
					<dim>512</dim>
					<dim>14</dim>
					<dim>14</dim>
				</port>
			</output>
		</layer>
		<layer id="85" name="956912629" type="Const" version="opset1">
			<data element_type="i64" shape="4" offset="12800" size="32"/>
			<output>
				<port id="0" precision="I64">
					<dim>4</dim>
				</port>
			</output>
		</layer>
		<layer id="86" name="957512554" type="Const" version="opset1">
			<data element_type="i64" shape="4" offset="12832" size="32"/>
			<output>
				<port id="0" precision="I64">
					<dim>4</dim>
				</port>
			</output>
		</layer>
		<layer id="87" name="StatefulPartitionedCall/mobilenet_1.00_224/conv_pad_12/Pad/pad_value_convert_input_port_0/value" type="Const" version="opset1">
			<data element_type="f32" shape="" offset="12864" size="4"/>
			<output>
				<port id="0" precision="FP32"/>
			</output>
		</layer>
		<layer id="88" name="StatefulPartitionedCall/mobilenet_1.00_224/conv_pad_12/Pad/pad_value_convert" type="ConvertLike" version="opset1">
			<input>
				<port id="0" precision="FP32"/>
				<port id="1" precision="FP32">
					<dim>1</dim>
					<dim>512</dim>
					<dim>14</dim>
					<dim>14</dim>
				</port>
			</input>
			<output>
				<port id="2" precision="FP32"/>
			</output>
		</layer>
		<layer id="89" name="StatefulPartitionedCall/mobilenet_1.00_224/conv_pad_12/Pad" type="Pad" version="opset1">
			<data pad_mode="constant"/>
			<input>
				<port id="0" precision="FP32">
					<dim>1</dim>
					<dim>512</dim>
					<dim>14</dim>
					<dim>14</dim>
				</port>
				<port id="1" precision="I64">
					<dim>4</dim>
				</port>
				<port id="2" precision="I64">
					<dim>4</dim>
				</port>
				<port id="3" precision="FP32"/>
			</input>
			<output>
				<port id="4" precision="FP32" names="StatefulPartitionedCall/mobilenet_1.00_224/conv_pad_12/Pad:0">
					<dim>1</dim>
					<dim>512</dim>
					<dim>15</dim>
					<dim>15</dim>
				</port>
			</output>
		</layer>
		<layer id="90" name="StatefulPartitionedCall/mobilenet_1.00_224/conv_dw_12_bn/FusedBatchNormV3/mean/Fused_Mul__copy" type="Const" version="opset1">
			<data element_type="f32" shape="512, 1, 1, 3, 3" offset="6393668" size="18432"/>
			<output>
				<port id="0" precision="FP32" names="StatefulPartitionedCall/mobilenet_1.00_224/conv_dw_12/depthwise/ReadVariableOp:0">
					<dim>512</dim>
					<dim>1</dim>
					<dim>1</dim>
					<dim>3</dim>
					<dim>3</dim>
				</port>
			</output>
		</layer>
		<layer id="91" name="StatefulPartitionedCall/mobilenet_1.00_224/conv_dw_12/depthwise" type="GroupConvolution" version="opset1">
			<data strides="2, 2" pads_begin="0, 0" pads_end="0, 0" dilations="1, 1" auto_pad="valid"/>
			<input>
				<port id="0" precision="FP32">
					<dim>1</dim>
					<dim>512</dim>
					<dim>15</dim>
					<dim>15</dim>
				</port>
				<port id="1" precision="FP32">
					<dim>512</dim>
					<dim>1</dim>
					<dim>1</dim>
					<dim>3</dim>
					<dim>3</dim>
				</port>
			</input>
			<output>
				<port id="2" precision="FP32" names="StatefulPartitionedCall/mobilenet_1.00_224/conv_dw_12_bn/FusedBatchNormV3:0">
					<dim>1</dim>
					<dim>512</dim>
					<dim>7</dim>
					<dim>7</dim>
				</port>
			</output>
		</layer>
		<layer id="92" name="StatefulPartitionedCall/mobilenet_1.00_224/conv_dw_12_relu/Relu6" type="Clamp" version="opset1">
			<data min="0" max="6"/>
			<input>
				<port id="0" precision="FP32">
					<dim>1</dim>
					<dim>512</dim>
					<dim>7</dim>
					<dim>7</dim>
				</port>
			</input>
			<output>
				<port id="1" precision="FP32" names="StatefulPartitionedCall/mobilenet_1.00_224/conv_dw_12_relu/Relu6:0">
					<dim>1</dim>
					<dim>512</dim>
					<dim>7</dim>
					<dim>7</dim>
				</port>
			</output>
		</layer>
		<layer id="93" name="StatefulPartitionedCall/mobilenet_1.00_224/conv_pw_12_bn/FusedBatchNormV3/mean/Fused_Mul__copy" type="Const" version="opset1">
			<data element_type="f32" shape="1024, 512, 1, 1" offset="6412100" size="2097152"/>
			<output>
				<port id="0" precision="FP32" names="StatefulPartitionedCall/mobilenet_1.00_224/conv_pw_12/Conv2D/ReadVariableOp:0">
					<dim>1024</dim>
					<dim>512</dim>
					<dim>1</dim>
					<dim>1</dim>
				</port>
			</output>
		</layer>
		<layer id="94" name="StatefulPartitionedCall/mobilenet_1.00_224/conv_pw_12/Conv2D" type="Convolution" version="opset1">
			<data strides="1, 1" dilations="1, 1" pads_begin="0, 0" pads_end="0, 0" auto_pad="same_upper"/>
			<input>
				<port id="0" precision="FP32">
					<dim>1</dim>
					<dim>512</dim>
					<dim>7</dim>
					<dim>7</dim>
				</port>
				<port id="1" precision="FP32">
					<dim>1024</dim>
					<dim>512</dim>
					<dim>1</dim>
					<dim>1</dim>
				</port>
			</input>
			<output>
				<port id="2" precision="FP32" names="StatefulPartitionedCall/mobilenet_1.00_224/conv_pw_12_bn/FusedBatchNormV3:0">
					<dim>1</dim>
					<dim>1024</dim>
					<dim>7</dim>
					<dim>7</dim>
				</port>
			</output>
		</layer>
		<layer id="95" name="StatefulPartitionedCall/mobilenet_1.00_224/conv_pw_12_relu/Relu6" type="Clamp" version="opset1">
			<data min="0" max="6"/>
			<input>
				<port id="0" precision="FP32">
					<dim>1</dim>
					<dim>1024</dim>
					<dim>7</dim>
					<dim>7</dim>
				</port>
			</input>
			<output>
				<port id="1" precision="FP32" names="StatefulPartitionedCall/mobilenet_1.00_224/conv_pw_12_relu/Relu6:0">
					<dim>1</dim>
					<dim>1024</dim>
					<dim>7</dim>
					<dim>7</dim>
				</port>
			</output>
		</layer>
		<layer id="96" name="StatefulPartitionedCall/mobilenet_1.00_224/conv_dw_13_bn/FusedBatchNormV3/mean/Fused_Mul__copy" type="Const" version="opset1">
			<data element_type="f32" shape="1024, 1, 1, 3, 3" offset="8509252" size="36864"/>
			<output>
				<port id="0" precision="FP32" names="StatefulPartitionedCall/mobilenet_1.00_224/conv_dw_13/depthwise/ReadVariableOp:0">
					<dim>1024</dim>
					<dim>1</dim>
					<dim>1</dim>
					<dim>3</dim>
					<dim>3</dim>
				</port>
			</output>
		</layer>
		<layer id="97" name="StatefulPartitionedCall/mobilenet_1.00_224/conv_dw_13/depthwise" type="GroupConvolution" version="opset1">
			<data strides="1, 1" pads_begin="1, 1" pads_end="1, 1" dilations="1, 1" auto_pad="same_upper"/>
			<input>
				<port id="0" precision="FP32">
					<dim>1</dim>
					<dim>1024</dim>
					<dim>7</dim>
					<dim>7</dim>
				</port>
				<port id="1" precision="FP32">
					<dim>1024</dim>
					<dim>1</dim>
					<dim>1</dim>
					<dim>3</dim>
					<dim>3</dim>
				</port>
			</input>
			<output>
				<port id="2" precision="FP32" names="StatefulPartitionedCall/mobilenet_1.00_224/conv_dw_13_bn/FusedBatchNormV3:0">
					<dim>1</dim>
					<dim>1024</dim>
					<dim>7</dim>
					<dim>7</dim>
				</port>
			</output>
		</layer>
		<layer id="98" name="StatefulPartitionedCall/mobilenet_1.00_224/conv_dw_13_relu/Relu6" type="Clamp" version="opset1">
			<data min="0" max="6"/>
			<input>
				<port id="0" precision="FP32">
					<dim>1</dim>
					<dim>1024</dim>
					<dim>7</dim>
					<dim>7</dim>
				</port>
			</input>
			<output>
				<port id="1" precision="FP32" names="StatefulPartitionedCall/mobilenet_1.00_224/conv_dw_13_relu/Relu6:0">
					<dim>1</dim>
					<dim>1024</dim>
					<dim>7</dim>
					<dim>7</dim>
				</port>
			</output>
		</layer>
		<layer id="99" name="StatefulPartitionedCall/mobilenet_1.00_224/conv_pw_13_bn/FusedBatchNormV3/mean/Fused_Mul__copy" type="Const" version="opset1">
			<data element_type="f32" shape="1024, 1024, 1, 1" offset="8546116" size="4194304"/>
			<output>
				<port id="0" precision="FP32" names="StatefulPartitionedCall/mobilenet_1.00_224/conv_pw_13/Conv2D/ReadVariableOp:0">
					<dim>1024</dim>
					<dim>1024</dim>
					<dim>1</dim>
					<dim>1</dim>
				</port>
			</output>
		</layer>
		<layer id="100" name="StatefulPartitionedCall/mobilenet_1.00_224/conv_pw_13/Conv2D" type="Convolution" version="opset1">
			<data strides="1, 1" dilations="1, 1" pads_begin="0, 0" pads_end="0, 0" auto_pad="same_upper"/>
			<input>
				<port id="0" precision="FP32">
					<dim>1</dim>
					<dim>1024</dim>
					<dim>7</dim>
					<dim>7</dim>
				</port>
				<port id="1" precision="FP32">
					<dim>1024</dim>
					<dim>1024</dim>
					<dim>1</dim>
					<dim>1</dim>
				</port>
			</input>
			<output>
				<port id="2" precision="FP32" names="StatefulPartitionedCall/mobilenet_1.00_224/conv_pw_13_bn/FusedBatchNormV3:0">
					<dim>1</dim>
					<dim>1024</dim>
					<dim>7</dim>
					<dim>7</dim>
				</port>
			</output>
		</layer>
		<layer id="101" name="StatefulPartitionedCall/mobilenet_1.00_224/conv_pw_13_relu/Relu6" type="Clamp" version="opset1">
			<data min="0" max="6"/>
			<input>
				<port id="0" precision="FP32">
					<dim>1</dim>
					<dim>1024</dim>
					<dim>7</dim>
					<dim>7</dim>
				</port>
			</input>
			<output>
				<port id="1" precision="FP32">
					<dim>1</dim>
					<dim>1024</dim>
					<dim>7</dim>
					<dim>7</dim>
				</port>
			</output>
		</layer>
		<layer id="102" name="StatefulPartitionedCall/mobilenet_1.00_224/global_average_pooling2d/MeanGather1048312656" type="Const" version="opset1">
			<data element_type="i64" shape="2" offset="12740420" size="16"/>
			<output>
				<port id="0" precision="I64">
					<dim>2</dim>
				</port>
			</output>
		</layer>
		<layer id="103" name="StatefulPartitionedCall/mobilenet_1.00_224/global_average_pooling2d/Mean" type="ReduceMean" version="opset1">
			<data keep_dims="false"/>
			<input>
				<port id="0" precision="FP32">
					<dim>1</dim>
					<dim>1024</dim>
					<dim>7</dim>
					<dim>7</dim>
				</port>
				<port id="1" precision="I64">
					<dim>2</dim>
				</port>
			</input>
			<output>
				<port id="2" precision="FP32" names="StatefulPartitionedCall/mobilenet_1.00_224/global_average_pooling2d/Mean:0">
					<dim>1</dim>
					<dim>1024</dim>
				</port>
			</output>
		</layer>
		<layer id="104" name="StatefulPartitionedCall/mobilenet_1.00_224/reshape_1/Shape" type="ShapeOf" version="opset3">
			<data output_type="i32"/>
			<input>
				<port id="0" precision="FP32">
					<dim>1</dim>
					<dim>1024</dim>
				</port>
			</input>
			<output>
				<port id="1" precision="I32" names="StatefulPartitionedCall/mobilenet_1.00_224/reshape_1/Shape:0">
					<dim>2</dim>
				</port>
			</output>
		</layer>
		<layer id="105" name="StatefulPartitionedCall/mobilenet_1.00_224/reshape_1/strided_slice/stack" type="Const" version="opset1">
			<data element_type="i64" shape="1" offset="12740436" size="8"/>
			<output>
				<port id="0" precision="I64" names="StatefulPartitionedCall/mobilenet_1.00_224/reshape_1/strided_slice/stack:0">
					<dim>1</dim>
				</port>
			</output>
		</layer>
		<layer id="106" name="StatefulPartitionedCall/mobilenet_1.00_224/reshape_1/strided_slice/stack_1" type="Const" version="opset1">
			<data element_type="i64" shape="1" offset="12740444" size="8"/>
			<output>
				<port id="0" precision="I64" names="StatefulPartitionedCall/mobilenet_1.00_224/reshape_1/strided_slice/stack_1:0">
					<dim>1</dim>
				</port>
			</output>
		</layer>
		<layer id="107" name="StatefulPartitionedCall/mobilenet_1.00_224/reshape_1/strided_slice/stack_2" type="Const" version="opset1">
			<data element_type="i64" shape="1" offset="12740444" size="8"/>
			<output>
				<port id="0" precision="I64" names="StatefulPartitionedCall/mobilenet_1.00_224/reshape_1/strided_slice/stack_2:0">
					<dim>1</dim>
				</port>
			</output>
		</layer>
		<layer id="108" name="StatefulPartitionedCall/mobilenet_1.00_224/reshape_1/strided_slice" type="StridedSlice" version="opset1">
			<data begin_mask="0" end_mask="0" new_axis_mask="0" shrink_axis_mask="1" ellipsis_mask="0"/>
			<input>
				<port id="0" precision="I32">
					<dim>2</dim>
				</port>
				<port id="1" precision="I64">
					<dim>1</dim>
				</port>
				<port id="2" precision="I64">
					<dim>1</dim>
				</port>
				<port id="3" precision="I64">
					<dim>1</dim>
				</port>
			</input>
			<output>
				<port id="4" precision="I32" names="StatefulPartitionedCall/mobilenet_1.00_224/reshape_1/strided_slice:0"/>
			</output>
		</layer>
		<layer id="109" name="StatefulPartitionedCall/mobilenet_1.00_224/reshape_1/Reshape/shape/Unsqueeze_input_port_1/value" type="Const" version="opset1">
			<data element_type="i64" shape="1" offset="12740436" size="8"/>
			<output>
				<port id="0" precision="I64">
					<dim>1</dim>
				</port>
			</output>
		</layer>
		<layer id="110" name="StatefulPartitionedCall/mobilenet_1.00_224/reshape_1/Reshape/shape/Unsqueeze" type="Unsqueeze" version="opset1">
			<input>
				<port id="0" precision="I32"/>
				<port id="1" precision="I64">
					<dim>1</dim>
				</port>
			</input>
			<output>
				<port id="2" precision="I32">
					<dim>1</dim>
				</port>
			</output>
		</layer>
		<layer id="111" name="StatefulPartitionedCall/mobilenet_1.00_224/reshape_1/Reshape/shape/Unsqueeze580" type="Const" version="opset1">
			<data element_type="i32" shape="1" offset="12740452" size="4"/>
			<output>
				<port id="0" precision="I32">
					<dim>1</dim>
				</port>
			</output>
		</layer>
		<layer id="112" name="StatefulPartitionedCall/mobilenet_1.00_224/reshape_1/Reshape/shape/Unsqueeze582" type="Const" version="opset1">
			<data element_type="i32" shape="1" offset="12740452" size="4"/>
			<output>
				<port id="0" precision="I32">
					<dim>1</dim>
				</port>
			</output>
		</layer>
		<layer id="113" name="StatefulPartitionedCall/mobilenet_1.00_224/reshape_1/Reshape/shape/Unsqueeze584" type="Const" version="opset1">
			<data element_type="i32" shape="1" offset="12740456" size="4"/>
			<output>
				<port id="0" precision="I32">
					<dim>1</dim>
				</port>
			</output>
		</layer>
		<layer id="114" name="StatefulPartitionedCall/mobilenet_1.00_224/reshape_1/Reshape/shape" type="Concat" version="opset1">
			<data axis="0"/>
			<input>
				<port id="0" precision="I32">
					<dim>1</dim>
				</port>
				<port id="1" precision="I32">
					<dim>1</dim>
				</port>
				<port id="2" precision="I32">
					<dim>1</dim>
				</port>
				<port id="3" precision="I32">
					<dim>1</dim>
				</port>
			</input>
			<output>
				<port id="4" precision="I32">
					<dim>4</dim>
				</port>
			</output>
		</layer>
		<layer id="115" name="StatefulPartitionedCall/mobilenet_1.00_224/reshape_1/Reshape/Cast_1" type="Convert" version="opset1">
			<data destination_type="i64"/>
			<input>
				<port id="0" precision="I32">
					<dim>4</dim>
				</port>
			</input>
			<output>
				<port id="1" precision="I64" names="StatefulPartitionedCall/mobilenet_1.00_224/reshape_1/Reshape/shape:0">
					<dim>4</dim>
				</port>
			</output>
		</layer>
		<layer id="116" name="StatefulPartitionedCall/mobilenet_1.00_224/reshape_1/Reshape" type="Reshape" version="opset1">
			<data special_zero="false"/>
			<input>
				<port id="0" precision="FP32">
					<dim>1</dim>
					<dim>1024</dim>
				</port>
				<port id="1" precision="I64">
					<dim>4</dim>
				</port>
			</input>
			<output>
				<port id="2" precision="FP32">
					<dim>1</dim>
					<dim>1</dim>
					<dim>1</dim>
					<dim>1024</dim>
				</port>
			</output>
		</layer>
		<layer id="117" name="StatefulPartitionedCall/mobilenet_1.00_224/reshape_1/Reshape/Transpose/value918412677" type="Const" version="opset1">
			<data element_type="i64" shape="4" offset="12740460" size="32"/>
			<output>
				<port id="0" precision="I64">
					<dim>4</dim>
				</port>
			</output>
		</layer>
		<layer id="118" name="StatefulPartitionedCall/mobilenet_1.00_224/reshape_1/Reshape/Transpose" type="Transpose" version="opset1">
			<input>
				<port id="0" precision="FP32">
					<dim>1</dim>
					<dim>1</dim>
					<dim>1</dim>
					<dim>1024</dim>
				</port>
				<port id="1" precision="I64">
					<dim>4</dim>
				</port>
			</input>
			<output>
				<port id="2" precision="FP32" names="StatefulPartitionedCall/mobilenet_1.00_224/dropout/Identity:0,StatefulPartitionedCall/mobilenet_1.00_224/reshape_1/Reshape:0">
					<dim>1</dim>
					<dim>1024</dim>
					<dim>1</dim>
					<dim>1</dim>
				</port>
			</output>
		</layer>
		<layer id="119" name="StatefulPartitionedCall/mobilenet_1.00_224/conv_preds/Conv2D/ReadVariableOp" type="Const" version="opset1">
			<data element_type="f32" shape="1000, 1024, 1, 1" offset="12740492" size="4096000"/>
			<output>
				<port id="0" precision="FP32" names="StatefulPartitionedCall/mobilenet_1.00_224/conv_preds/Conv2D/ReadVariableOp:0">
					<dim>1000</dim>
					<dim>1024</dim>
					<dim>1</dim>
					<dim>1</dim>
				</port>
			</output>
		</layer>
		<layer id="120" name="StatefulPartitionedCall/mobilenet_1.00_224/conv_preds/Conv2D" type="Convolution" version="opset1">
			<data strides="1, 1" dilations="1, 1" pads_begin="0, 0" pads_end="0, 0" auto_pad="same_upper"/>
			<input>
				<port id="0" precision="FP32">
					<dim>1</dim>
					<dim>1024</dim>
					<dim>1</dim>
					<dim>1</dim>
				</port>
				<port id="1" precision="FP32">
					<dim>1000</dim>
					<dim>1024</dim>
					<dim>1</dim>
					<dim>1</dim>
				</port>
			</input>
			<output>
				<port id="2" precision="FP32" names="StatefulPartitionedCall/mobilenet_1.00_224/conv_preds/Conv2D:0">
					<dim>1</dim>
					<dim>1000</dim>
					<dim>1</dim>
					<dim>1</dim>
				</port>
			</output>
		</layer>
		<layer id="121" name="StatefulPartitionedCall/mobilenet_1.00_224/conv_preds/BiasAdd/ReadVariableOp" type="Const" version="opset1">
			<data element_type="f32" shape="1, 1000, 1, 1" offset="16836492" size="4000"/>
			<output>
				<port id="0" precision="FP32" names="StatefulPartitionedCall/mobilenet_1.00_224/conv_preds/BiasAdd/ReadVariableOp:0">
					<dim>1</dim>
					<dim>1000</dim>
					<dim>1</dim>
					<dim>1</dim>
				</port>
			</output>
		</layer>
		<layer id="122" name="StatefulPartitionedCall/mobilenet_1.00_224/conv_preds/BiasAdd/Add" type="Add" version="opset1">
			<data auto_broadcast="numpy"/>
			<input>
				<port id="0" precision="FP32">
					<dim>1</dim>
					<dim>1000</dim>
					<dim>1</dim>
					<dim>1</dim>
				</port>
				<port id="1" precision="FP32">
					<dim>1</dim>
					<dim>1000</dim>
					<dim>1</dim>
					<dim>1</dim>
				</port>
			</input>
			<output>
				<port id="2" precision="FP32">
					<dim>1</dim>
					<dim>1000</dim>
					<dim>1</dim>
					<dim>1</dim>
				</port>
			</output>
		</layer>
		<layer id="123" name="StatefulPartitionedCall/mobilenet_1.00_224/conv_preds/BiasAdd/Add/Transpose/value918012572" type="Const" version="opset1">
			<data element_type="i64" shape="4" offset="16840492" size="32"/>
			<output>
				<port id="0" precision="I64">
					<dim>4</dim>
				</port>
			</output>
		</layer>
		<layer id="124" name="StatefulPartitionedCall/mobilenet_1.00_224/conv_preds/BiasAdd/Add/Transpose" type="Transpose" version="opset1">
			<input>
				<port id="0" precision="FP32">
					<dim>1</dim>
					<dim>1000</dim>
					<dim>1</dim>
					<dim>1</dim>
				</port>
				<port id="1" precision="I64">
					<dim>4</dim>
				</port>
			</input>
			<output>
				<port id="2" precision="FP32" names="StatefulPartitionedCall/mobilenet_1.00_224/conv_preds/BiasAdd:0">
					<dim>1</dim>
					<dim>1</dim>
					<dim>1</dim>
					<dim>1000</dim>
				</port>
			</output>
		</layer>
		<layer id="125" name="StatefulPartitionedCall/mobilenet_1.00_224/reshape_2/Shape" type="ShapeOf" version="opset3">
			<data output_type="i32"/>
			<input>
				<port id="0" precision="FP32">
					<dim>1</dim>
					<dim>1000</dim>
					<dim>1</dim>
					<dim>1</dim>
				</port>
			</input>
			<output>
				<port id="1" precision="I32">
					<dim>4</dim>
				</port>
			</output>
		</layer>
		<layer id="126" name="StatefulPartitionedCall/mobilenet_1.00_224/reshape_2/Shape/GatherNCHWtoNHWC_input_port_1/value929912557" type="Const" version="opset1">
			<data element_type="i32" shape="4" offset="16840524" size="16"/>
			<output>
				<port id="0" precision="I32">
					<dim>4</dim>
				</port>
			</output>
		</layer>
		<layer id="127" name="StatefulPartitionedCall/mobilenet_1.00_224/reshape_2/Shape/GatherNCHWtoNHWC_input_port_2/value930112641" type="Const" version="opset1">
			<data element_type="i64" shape="" offset="12740436" size="8"/>
			<output>
				<port id="0" precision="I64"/>
			</output>
		</layer>
		<layer id="128" name="StatefulPartitionedCall/mobilenet_1.00_224/reshape_2/Shape/GatherNCHWtoNHWC" type="Gather" version="opset7">
			<data batch_dims="0"/>
			<input>
				<port id="0" precision="I32">
					<dim>4</dim>
				</port>
				<port id="1" precision="I32">
					<dim>4</dim>
				</port>
				<port id="2" precision="I64"/>
			</input>
			<output>
				<port id="3" precision="I32" names="StatefulPartitionedCall/mobilenet_1.00_224/reshape_2/Shape:0">
					<dim>4</dim>
				</port>
			</output>
		</layer>
		<layer id="129" name="StatefulPartitionedCall/mobilenet_1.00_224/reshape_2/strided_slice/stack" type="Const" version="opset1">
			<data element_type="i64" shape="1" offset="12740436" size="8"/>
			<output>
				<port id="0" precision="I64" names="StatefulPartitionedCall/mobilenet_1.00_224/reshape_2/strided_slice/stack:0">
					<dim>1</dim>
				</port>
			</output>
		</layer>
		<layer id="130" name="StatefulPartitionedCall/mobilenet_1.00_224/reshape_2/strided_slice/stack_1" type="Const" version="opset1">
			<data element_type="i64" shape="1" offset="12740444" size="8"/>
			<output>
				<port id="0" precision="I64" names="StatefulPartitionedCall/mobilenet_1.00_224/reshape_2/strided_slice/stack_1:0">
					<dim>1</dim>
				</port>
			</output>
		</layer>
		<layer id="131" name="StatefulPartitionedCall/mobilenet_1.00_224/reshape_2/strided_slice/stack_2" type="Const" version="opset1">
			<data element_type="i64" shape="1" offset="12740444" size="8"/>
			<output>
				<port id="0" precision="I64" names="StatefulPartitionedCall/mobilenet_1.00_224/reshape_2/strided_slice/stack_2:0">
					<dim>1</dim>
				</port>
			</output>
		</layer>
		<layer id="132" name="StatefulPartitionedCall/mobilenet_1.00_224/reshape_2/strided_slice" type="StridedSlice" version="opset1">
			<data begin_mask="0" end_mask="0" new_axis_mask="0" shrink_axis_mask="1" ellipsis_mask="0"/>
			<input>
				<port id="0" precision="I32">
					<dim>4</dim>
				</port>
				<port id="1" precision="I64">
					<dim>1</dim>
				</port>
				<port id="2" precision="I64">
					<dim>1</dim>
				</port>
				<port id="3" precision="I64">
					<dim>1</dim>
				</port>
			</input>
			<output>
				<port id="4" precision="I32" names="StatefulPartitionedCall/mobilenet_1.00_224/reshape_2/strided_slice:0"/>
			</output>
		</layer>
		<layer id="133" name="StatefulPartitionedCall/mobilenet_1.00_224/reshape_2/Reshape/shape/Unsqueeze_input_port_1/value" type="Const" version="opset1">
			<data element_type="i64" shape="1" offset="12740436" size="8"/>
			<output>
				<port id="0" precision="I64">
					<dim>1</dim>
				</port>
			</output>
		</layer>
		<layer id="134" name="StatefulPartitionedCall/mobilenet_1.00_224/reshape_2/Reshape/shape/Unsqueeze" type="Unsqueeze" version="opset1">
			<input>
				<port id="0" precision="I32"/>
				<port id="1" precision="I64">
					<dim>1</dim>
				</port>
			</input>
			<output>
				<port id="2" precision="I32">
					<dim>1</dim>
				</port>
			</output>
		</layer>
		<layer id="135" name="StatefulPartitionedCall/mobilenet_1.00_224/reshape_2/Reshape/shape/Unsqueeze589" type="Const" version="opset1">
			<data element_type="i32" shape="1" offset="16840540" size="4"/>
			<output>
				<port id="0" precision="I32">
					<dim>1</dim>
				</port>
			</output>
		</layer>
		<layer id="136" name="StatefulPartitionedCall/mobilenet_1.00_224/reshape_2/Reshape/shape" type="Concat" version="opset1">
			<data axis="0"/>
			<input>
				<port id="0" precision="I32">
					<dim>1</dim>
				</port>
				<port id="1" precision="I32">
					<dim>1</dim>
				</port>
			</input>
			<output>
				<port id="2" precision="I32">
					<dim>2</dim>
				</port>
			</output>
		</layer>
		<layer id="137" name="StatefulPartitionedCall/mobilenet_1.00_224/reshape_2/Reshape/Cast_1" type="Convert" version="opset1">
			<data destination_type="i64"/>
			<input>
				<port id="0" precision="I32">
					<dim>2</dim>
				</port>
			</input>
			<output>
				<port id="1" precision="I64" names="StatefulPartitionedCall/mobilenet_1.00_224/reshape_2/Reshape/shape:0">
					<dim>2</dim>
				</port>
			</output>
		</layer>
		<layer id="138" name="StatefulPartitionedCall/mobilenet_1.00_224/reshape_2/Reshape" type="Reshape" version="opset1">
			<data special_zero="false"/>
			<input>
				<port id="0" precision="FP32">
					<dim>1</dim>
					<dim>1</dim>
					<dim>1</dim>
					<dim>1000</dim>
				</port>
				<port id="1" precision="I64">
					<dim>2</dim>
				</port>
			</input>
			<output>
				<port id="2" precision="FP32" names="StatefulPartitionedCall/mobilenet_1.00_224/reshape_2/Reshape:0">
					<dim>1</dim>
					<dim>1000</dim>
				</port>
			</output>
		</layer>
		<layer id="139" name="StatefulPartitionedCall/mobilenet_1.00_224/predictions/Softmax" type="SoftMax" version="opset1">
			<data axis="1"/>
			<input>
				<port id="0" precision="FP32">
					<dim>1</dim>
					<dim>1000</dim>
				</port>
			</input>
			<output>
				<port id="1" precision="FP32" names="Func/StatefulPartitionedCall/output/_138:0,Identity:0,StatefulPartitionedCall/Identity:0,StatefulPartitionedCall/mobilenet_1.00_224/predictions/Softmax:0">
					<dim>1</dim>
					<dim>1000</dim>
				</port>
			</output>
		</layer>
		<layer id="140" name="Func/StatefulPartitionedCall/output/_138:0" type="Result" version="opset1">
			<input>
				<port id="0" precision="FP32">
					<dim>1</dim>
					<dim>1000</dim>
				</port>
			</input>
		</layer>
	</layers>
	<edges>
		<edge from-layer="0" from-port="0" to-layer="2" to-port="0"/>
		<edge from-layer="1" from-port="0" to-layer="2" to-port="1"/>
		<edge from-layer="2" from-port="2" to-layer="3" to-port="0"/>
		<edge from-layer="3" from-port="1" to-layer="5" to-port="0"/>
		<edge from-layer="4" from-port="0" to-layer="5" to-port="1"/>
		<edge from-layer="5" from-port="2" to-layer="6" to-port="0"/>
		<edge from-layer="6" from-port="1" to-layer="8" to-port="0"/>
		<edge from-layer="7" from-port="0" to-layer="8" to-port="1"/>
		<edge from-layer="8" from-port="2" to-layer="9" to-port="0"/>
		<edge from-layer="9" from-port="1" to-layer="13" to-port="1"/>
		<edge from-layer="9" from-port="1" to-layer="14" to-port="0"/>
		<edge from-layer="10" from-port="0" to-layer="14" to-port="1"/>
		<edge from-layer="11" from-port="0" to-layer="14" to-port="2"/>
		<edge from-layer="12" from-port="0" to-layer="13" to-port="0"/>
		<edge from-layer="13" from-port="2" to-layer="14" to-port="3"/>
		<edge from-layer="14" from-port="4" to-layer="16" to-port="0"/>
		<edge from-layer="15" from-port="0" to-layer="16" to-port="1"/>
		<edge from-layer="16" from-port="2" to-layer="17" to-port="0"/>
		<edge from-layer="17" from-port="1" to-layer="19" to-port="0"/>
		<edge from-layer="18" from-port="0" to-layer="19" to-port="1"/>
		<edge from-layer="19" from-port="2" to-layer="20" to-port="0"/>
		<edge from-layer="20" from-port="1" to-layer="22" to-port="0"/>
		<edge from-layer="21" from-port="0" to-layer="22" to-port="1"/>
		<edge from-layer="22" from-port="2" to-layer="23" to-port="0"/>
		<edge from-layer="23" from-port="1" to-layer="25" to-port="0"/>
		<edge from-layer="24" from-port="0" to-layer="25" to-port="1"/>
		<edge from-layer="25" from-port="2" to-layer="26" to-port="0"/>
		<edge from-layer="26" from-port="1" to-layer="30" to-port="1"/>
		<edge from-layer="26" from-port="1" to-layer="31" to-port="0"/>
		<edge from-layer="27" from-port="0" to-layer="31" to-port="1"/>
		<edge from-layer="28" from-port="0" to-layer="31" to-port="2"/>
		<edge from-layer="29" from-port="0" to-layer="30" to-port="0"/>
		<edge from-layer="30" from-port="2" to-layer="31" to-port="3"/>
		<edge from-layer="31" from-port="4" to-layer="33" to-port="0"/>
		<edge from-layer="32" from-port="0" to-layer="33" to-port="1"/>
		<edge from-layer="33" from-port="2" to-layer="34" to-port="0"/>
		<edge from-layer="34" from-port="1" to-layer="36" to-port="0"/>
		<edge from-layer="35" from-port="0" to-layer="36" to-port="1"/>
		<edge from-layer="36" from-port="2" to-layer="37" to-port="0"/>
		<edge from-layer="37" from-port="1" to-layer="39" to-port="0"/>
		<edge from-layer="38" from-port="0" to-layer="39" to-port="1"/>
		<edge from-layer="39" from-port="2" to-layer="40" to-port="0"/>
		<edge from-layer="40" from-port="1" to-layer="42" to-port="0"/>
		<edge from-layer="41" from-port="0" to-layer="42" to-port="1"/>
		<edge from-layer="42" from-port="2" to-layer="43" to-port="0"/>
		<edge from-layer="43" from-port="1" to-layer="47" to-port="1"/>
		<edge from-layer="43" from-port="1" to-layer="48" to-port="0"/>
		<edge from-layer="44" from-port="0" to-layer="48" to-port="1"/>
		<edge from-layer="45" from-port="0" to-layer="48" to-port="2"/>
		<edge from-layer="46" from-port="0" to-layer="47" to-port="0"/>
		<edge from-layer="47" from-port="2" to-layer="48" to-port="3"/>
		<edge from-layer="48" from-port="4" to-layer="50" to-port="0"/>
		<edge from-layer="49" from-port="0" to-layer="50" to-port="1"/>
		<edge from-layer="50" from-port="2" to-layer="51" to-port="0"/>
		<edge from-layer="51" from-port="1" to-layer="53" to-port="0"/>
		<edge from-layer="52" from-port="0" to-layer="53" to-port="1"/>
		<edge from-layer="53" from-port="2" to-layer="54" to-port="0"/>
		<edge from-layer="54" from-port="1" to-layer="56" to-port="0"/>
		<edge from-layer="55" from-port="0" to-layer="56" to-port="1"/>
		<edge from-layer="56" from-port="2" to-layer="57" to-port="0"/>
		<edge from-layer="57" from-port="1" to-layer="59" to-port="0"/>
		<edge from-layer="58" from-port="0" to-layer="59" to-port="1"/>
		<edge from-layer="59" from-port="2" to-layer="60" to-port="0"/>
		<edge from-layer="60" from-port="1" to-layer="62" to-port="0"/>
		<edge from-layer="61" from-port="0" to-layer="62" to-port="1"/>
		<edge from-layer="62" from-port="2" to-layer="63" to-port="0"/>
		<edge from-layer="63" from-port="1" to-layer="65" to-port="0"/>
		<edge from-layer="64" from-port="0" to-layer="65" to-port="1"/>
		<edge from-layer="65" from-port="2" to-layer="66" to-port="0"/>
		<edge from-layer="66" from-port="1" to-layer="68" to-port="0"/>
		<edge from-layer="67" from-port="0" to-layer="68" to-port="1"/>
		<edge from-layer="68" from-port="2" to-layer="69" to-port="0"/>
		<edge from-layer="69" from-port="1" to-layer="71" to-port="0"/>
		<edge from-layer="70" from-port="0" to-layer="71" to-port="1"/>
		<edge from-layer="71" from-port="2" to-layer="72" to-port="0"/>
		<edge from-layer="72" from-port="1" to-layer="74" to-port="0"/>
		<edge from-layer="73" from-port="0" to-layer="74" to-port="1"/>
		<edge from-layer="74" from-port="2" to-layer="75" to-port="0"/>
		<edge from-layer="75" from-port="1" to-layer="77" to-port="0"/>
		<edge from-layer="76" from-port="0" to-layer="77" to-port="1"/>
		<edge from-layer="77" from-port="2" to-layer="78" to-port="0"/>
		<edge from-layer="78" from-port="1" to-layer="80" to-port="0"/>
		<edge from-layer="79" from-port="0" to-layer="80" to-port="1"/>
		<edge from-layer="80" from-port="2" to-layer="81" to-port="0"/>
		<edge from-layer="81" from-port="1" to-layer="83" to-port="0"/>
		<edge from-layer="82" from-port="0" to-layer="83" to-port="1"/>
		<edge from-layer="83" from-port="2" to-layer="84" to-port="0"/>
		<edge from-layer="84" from-port="1" to-layer="88" to-port="1"/>
		<edge from-layer="84" from-port="1" to-layer="89" to-port="0"/>
		<edge from-layer="85" from-port="0" to-layer="89" to-port="1"/>
		<edge from-layer="86" from-port="0" to-layer="89" to-port="2"/>
		<edge from-layer="87" from-port="0" to-layer="88" to-port="0"/>
		<edge from-layer="88" from-port="2" to-layer="89" to-port="3"/>
		<edge from-layer="89" from-port="4" to-layer="91" to-port="0"/>
		<edge from-layer="90" from-port="0" to-layer="91" to-port="1"/>
		<edge from-layer="91" from-port="2" to-layer="92" to-port="0"/>
		<edge from-layer="92" from-port="1" to-layer="94" to-port="0"/>
		<edge from-layer="93" from-port="0" to-layer="94" to-port="1"/>
		<edge from-layer="94" from-port="2" to-layer="95" to-port="0"/>
		<edge from-layer="95" from-port="1" to-layer="97" to-port="0"/>
		<edge from-layer="96" from-port="0" to-layer="97" to-port="1"/>
		<edge from-layer="97" from-port="2" to-layer="98" to-port="0"/>
		<edge from-layer="98" from-port="1" to-layer="100" to-port="0"/>
		<edge from-layer="99" from-port="0" to-layer="100" to-port="1"/>
		<edge from-layer="100" from-port="2" to-layer="101" to-port="0"/>
		<edge from-layer="101" from-port="1" to-layer="103" to-port="0"/>
		<edge from-layer="102" from-port="0" to-layer="103" to-port="1"/>
		<edge from-layer="103" from-port="2" to-layer="104" to-port="0"/>
		<edge from-layer="103" from-port="2" to-layer="116" to-port="0"/>
		<edge from-layer="104" from-port="1" to-layer="108" to-port="0"/>
		<edge from-layer="105" from-port="0" to-layer="108" to-port="1"/>
		<edge from-layer="106" from-port="0" to-layer="108" to-port="2"/>
		<edge from-layer="107" from-port="0" to-layer="108" to-port="3"/>
		<edge from-layer="108" from-port="4" to-layer="110" to-port="0"/>
		<edge from-layer="109" from-port="0" to-layer="110" to-port="1"/>
		<edge from-layer="110" from-port="2" to-layer="114" to-port="0"/>
		<edge from-layer="111" from-port="0" to-layer="114" to-port="1"/>
		<edge from-layer="112" from-port="0" to-layer="114" to-port="2"/>
		<edge from-layer="113" from-port="0" to-layer="114" to-port="3"/>
		<edge from-layer="114" from-port="4" to-layer="115" to-port="0"/>
		<edge from-layer="115" from-port="1" to-layer="116" to-port="1"/>
		<edge from-layer="116" from-port="2" to-layer="118" to-port="0"/>
		<edge from-layer="117" from-port="0" to-layer="118" to-port="1"/>
		<edge from-layer="118" from-port="2" to-layer="120" to-port="0"/>
		<edge from-layer="119" from-port="0" to-layer="120" to-port="1"/>
		<edge from-layer="120" from-port="2" to-layer="122" to-port="0"/>
		<edge from-layer="121" from-port="0" to-layer="122" to-port="1"/>
		<edge from-layer="122" from-port="2" to-layer="125" to-port="0"/>
		<edge from-layer="122" from-port="2" to-layer="124" to-port="0"/>
		<edge from-layer="123" from-port="0" to-layer="124" to-port="1"/>
		<edge from-layer="124" from-port="2" to-layer="138" to-port="0"/>
		<edge from-layer="125" from-port="1" to-layer="128" to-port="0"/>
		<edge from-layer="126" from-port="0" to-layer="128" to-port="1"/>
		<edge from-layer="127" from-port="0" to-layer="128" to-port="2"/>
		<edge from-layer="128" from-port="3" to-layer="132" to-port="0"/>
		<edge from-layer="129" from-port="0" to-layer="132" to-port="1"/>
		<edge from-layer="130" from-port="0" to-layer="132" to-port="2"/>
		<edge from-layer="131" from-port="0" to-layer="132" to-port="3"/>
		<edge from-layer="132" from-port="4" to-layer="134" to-port="0"/>
		<edge from-layer="133" from-port="0" to-layer="134" to-port="1"/>
		<edge from-layer="134" from-port="2" to-layer="136" to-port="0"/>
		<edge from-layer="135" from-port="0" to-layer="136" to-port="1"/>
		<edge from-layer="136" from-port="2" to-layer="137" to-port="0"/>
		<edge from-layer="137" from-port="1" to-layer="138" to-port="1"/>
		<edge from-layer="138" from-port="2" to-layer="139" to-port="0"/>
		<edge from-layer="139" from-port="1" to-layer="140" to-port="0"/>
	</edges>
	<meta_data>
		<MO_version value="2021.4.0-3839-cd81789d294-releases/2021/4"/>
		<cli_parameters>
			<data_type value="float"/>
			<disable_nhwc_to_nchw value="False"/>
			<disable_resnet_optimization value="False"/>
			<disable_weights_compression value="False"/>
			<enable_concat_optimization value="False"/>
			<extensions value="DIR"/>
			<framework value="tf"/>
			<freeze_placeholder_with_value value="{}"/>
			<generate_deprecated_IR_V7 value="False"/>
			<input_model_is_text value="False"/>
			<input_shape value="[1,224,224,3]"/>
			<keep_shape_ops value="True"/>
			<legacy_ir_generation value="False"/>
			<log_level value="ERROR"/>
			<mean_scale_values value="{}"/>
			<mean_values value="()"/>
			<model_name value="saved_model"/>
			<output_dir value="DIR"/>
			<placeholder_data_types value="{}"/>
			<placeholder_shapes value="[  1 224 224   3]"/>
			<progress value="False"/>
			<reverse_input_channels value="False"/>
			<saved_model_dir value="DIR"/>
			<scale_values value="()"/>
			<silent value="False"/>
			<static_shape value="False"/>
			<stream_output value="False"/>
			<transform value=""/>
			<unset unset_cli_parameters="batch, disable_fusing, disable_gfusing, finegrain_fusing, input, input_checkpoint, input_meta_graph, input_model, move_to_preprocess, output, saved_model_tags, scale, tensorboard_logdir, tensorflow_custom_layer_libraries, tensorflow_custom_operations_config_update, tensorflow_object_detection_api_pipeline_config, tensorflow_use_custom_operations_config, transformations_config"/>
		</cli_parameters>
	</meta_data>
</net>
